models/rl_trader/policy.pt (torch, 558674 bytes, 15 tensors)

feature_extractor.0.weight f4 [256, 19]
0.12970006 0.026810857 -0.047520634 0.16507523 -0.109618485 -0.18551907 -0.13593823 0.10198844
-0.07222964 0.07257138 0.061785094 0.052885953 -0.004560015 -0.0043275584 0.09578374 -0.0020744728
-0.3938354 0.11793412 0.06623597 0.062011633 0.017278254 -0.07317143 -0.026043143 0.11757138
-0.008067809 -0.059574414 -0.024772419 0.08846798 -0.22560532 0.027266374 0.108923085 -0.006173895
0.052886497 0.0018252338 -0.028784519 0.5005973 -0.23622268 0.018843902 0.10691253 0.00536405
0.044571914 0.0469615 0.051103357 0.04807786 -0.019228052 -0.04601424 0.0011257882 -0.011678527
0.14118953 -0.05121375 -0.013992655 0.05688325 0.03482222 -0.040348493 0.4716037 -0.20607081
0.07093952 0.14499041 0.17580728 0.10814485 -0.09657113 -0.095190085 0.12879196 0.12741847
0.25646666 -0.08359104 -0.03777307 0.16582097 -0.13741326 -0.03848549 -0.046045043 0.043559015
-0.07801978 -0.03884669 0.122491606 -0.093794815 -0.054854166 0.0039807386 0.100905776 -0.10612743
-0.1987234 0.06464902 -0.021499105 0.16403341 -0.14904512 0.09862788 0.07733864 -0.04073876
-0.19675593 0.037788127 -0.002041384 -0.121139124 -0.11023753 0.039403725 0.0264561 0.088673346
0.1202197 -0.077166505 -0.15186828 0.03901865 0.19803965 0.15244728 -0.06335628 0.12214374
0.09117561 0.087092526 -0.014787075 0.010593789 -0.21011469 0.042116378 -0.002041116 0.21921134
-0.25428787 -0.10077623 0.08122816 -0.028660592 -0.0866356 -0.0016326063 0.094065465 0.13742699
0.0061030188 -0.0028580553 0.22348976 0.20429212 -0.22072878 -0.1932671 0.018942371 -0.017220031
0.04556548 -0.0047792224 -0.13206933 -0.022297706 0.16314912 -0.07551558 0.052336838 0.08368524
0.036204133 0.0032055732 0.11085463 -0.069666795 -0.009021505 -0.06252521 0.0077780173 0.0324274
-0.011416489 -0.13079181 -0.008385933 0.0044257306 -0.029775815 0.06456072 -0.21452776 0.20035018
0.16470785 0.2047044 0.11662991 -0.0057471893 0.072372474 0.02495223 -0.14210942 0.02864917
0.083904564 0.028635591 0.12796822 0.09218331 -0.22330898 0.058075465 0.011366348 0.012682972
-0.45252663 0.14916913 0.14906232 -0.25672525 0.0055582314 -0.11688434 -0.042313557 -0.013002082
-0.11357306 0.032078 -0.0074367677 0.07894362 0.0306727 -0.08225849 -0.065228686 -0.08738348
0.078136735 0.026301572 -0.06608318 0.072317846 0.10322149 0.089222245 0.09989831 0.11819309
0.06533487 -0.13388951 0.0499145 0.007059841 0.0340691 -0.018770952 -0.2197003 -0.030445756
-0.055396337 -0.02521685 0.24842194 -0.08039172 0.1432842 0.037989408 -0.20130965 -0.007329236
0.030948175 -0.08009621 -0.06617091 -0.124813534 -0.07425317 -0.23099968 -0.07026546 -0.050809123
-0.025893496 0.0118132485 0.095134 0.11633634 0.14826731 -0.015363571 -0.034570035 0.10853743
0.12910385 -0.3204125 0.15786536 0.058362715 -0.01618782 0.085059755 -0.06356176 -0.15146802
0.12316081 -0.06068278 0.04114912 0.10151398 0.07931806 0.04941169 -0.0911019 0.06343804
-0.165009 -0.012395174 0.1554485 0.029332565 -0.1914761 0.14568715 0.05913657 0.01959681
0.00965526 0.009879717 -0.045766294 -0.025372759 0.0155165875 -0.04023644 -0.01156987 0.028818188
00000000: 18d0 043e 71a2 db3c ffa4 42bd 7b09 293e
00000010: a87f e0bd b6f8 3dbe 6433 0bbe 51df d03d
00000020: 22ed 93bd 4ea0 943d 5e12 7d3d f19e 583d
00000030: 2e6c 95bb 31ce 8dbb 442a c43d e1f3 07bb
00000040: cba4 c9be 7287 f13d b9a6 873d e9ff 7d3d
00000050: 208b 8d3c e7da 95bd 6e58 d5bc 44c9 f03d
00000060: d82e 04bc 4d04 74bd 87ef cabc b32e b53d
00000070: 1505 67be bb5d df3c 1113 df3d 634e cabb
00000080: 839f 583d af3c ef3a 83cd ebbc 2527 003f
00000090: 5ce4 71be 875e 9a3c f5f4 da3d eac4 af3b
000000a0: 0a91 363d b45a 403d c151 513d 4aed 443d
000000b0: 2684 9dbc 6d79 3cbd 2f8f 933a 4b57 3fbc
000000c0: fd93 103e 82c5 51bd 7341 65bc 69fe 683d
000000d0: bfa1 0e3d 7644 25bd 0a76 f13e 3a04 53be
000000e0: bd48 913d 5e78 143e d306 343e 0c7b dd3d
000000f0: 16c7 c5bd 05f3 c2bd 0ae2 033e fd79 023e
00000100: 994f 833e c731 abbd efb7 1abd f9cc 293e
00000110: 10b6 0cbe f6a2 1dbd ba99 3cbd f06a 323d
00000120: d6c8 9fbd b51d 1fbd e1dc fa3d 7f17 c0bd
00000130: c3ae 60bd db70 823b b0a7 ce3d 5759 d9bd
00000140: 267e 4bbe b566 843d e41e b0bc 60f8 273e
00000150: 499f 18be 6afd c93d b963 9e3d b0dd 26bd
00000160: 637a 49be b9c7 1a3d bec8 05bb ca17 f8bd
00000170: 37c4 e1bd cd65 213d 77ba d83c 5f9a b53d
00000180: bf35 f63d 7909 9ebd 5c83 1bbe 05d2 1f3d
00000190: e8ca 4a3e 241b 1c3e f0c0 81bd 7f26 fa3d
000001a0: 47ba ba3d 915d b23d 7d45 72bc 9291 2d3c
000001b0: 4e28 57be 3982 2c3d 3ec4 05bb f078 603e
000001c0: 0532 82be c563 cebd f35a a63d 9ec9 eabc
000001d0: 016e b1bd 2dfd d5ba 65a5 c03d a9b9 0c3e
000001e0: d5fb c73b 364e 3bbb 80da 643e f431 513e
000001f0: ba06 62be d0e7 45be 082d 9b3c 0611 8dbc
00000200: dea2 3a3d 069b 9cbb 2f3d 07be aea9 b6bc
00000210: 9010 273e eaa7 9abd 275f 563d 2b63 ab3d
00000220: c94a 143d 9814 523b c107 e33d 77ad 8ebd
00000230: efce 13bc 380d 80bd bdde fe3b 98d2 043d
00000240: 3a0c 3bbc 4aee 05be 2765 09bc b805 913b
00000250: 69ec f3bc 6938 843d 2aad 5bbe 9928 4d3e
00000260: 2da9 283e 089e 513e aadb ee3d eb52 bcbb
00000270: 0538 943d 9e68 cc3c 2285 11be aab1 ea3c
00000280: 28d6 ab3d 3095 ea3c 1a0a 033e 9aca bc3d
00000290: 1cab 64be 8ae0 6d3d eb39 3a3c 3dcc 4f3c
000002a0: 92b1 e7be cbbf 183e cba3 183e 7e71 83be
000002b0: d321 b63b 0f61 efbd fb50 2dbd af06 55bc
000002c0: fe98 e8bd 3964 033d 21b0 f3bb 31ad a13d
000002d0: 5045 fb3c 2477 a8bd 9e96 85bd 1cf6 b2bd
000002e0: 2706 a03d 6576 d73c 9e56 87bd 611b 943d
000002f0: ca65 d33d 27ba b63d 7c97 cc3d 380f f23d
00000300: 4ace 853d 551a 09be 2673 4c3d 3d56 e73b
00000310: 0a8c 0b3d 8ac5 99bc 1ef9 60be 6169 f9bc
00000320: 45e7 62bd 9193 cebc 5262 7e3e 6aa4 a4bd
00000330: 18b9 123e c89a 1b3d 1e24 4ebe 162a f0bb
00000340: 0787 fd3c 7b09 a4bd 9d84 87bd 3d9e ffbd
00000350: 0c12 98bd 2e8b 6cbe 56e7 8fbd 3a1d 50bd
00000360: 991e d4bc 5b8c 413c 9dd5 c23d bf41 ee3d
00000370: 63d3 173e 7db7 7bbc 4f99 0dbd df48 de3d
00000380: cd33 043e 1b0d a4be 75a7 213e be0d 6f3d
00000390: 529c 84bc cf33 ae3d ab2c 82bd 6f1a 1bbe
000003a0: bc3b fc3d 828e 78bd fb8b 283d 90e6 cf3d
000003b0: 8271 a23d ea63 4a3d a293 babd ceeb 813d
000003c0: 1ff8 28be 2115 4bbc e42d 1f3e d94a f03c
000003d0: 5012 44be 032f 153e 3039 723d 7d89 a03c
000003e0: 1831 1e3c 89de 213c 7075 3bbd 88da cfbc
000003f0: 4939 7e3c f7ce 24bd 8d8f 3dbc 1f14 ec3c

feature_extractor.0.bias f4 [256]
0.053613428 0.036206797 -0.051201902 -0.011979421 0.048743956 -0.03748723 -0.021657115 0.0919602
0.034641277 0.0009115313 -0.059157707 0.0635589 0.037797965 0.08076011 0.025749756 0.031464774
0.09128112 0.095561974 0.12715669 -0.010133844 -0.0446099 0.018320488 0.026702747 -0.06355783
-0.05682355 0.17530967 -0.0018397575 0.008112773 -0.049954932 0.0010429505 -0.05056374 -0.0076915934
0.08758553 -0.075568214 0.022550145 -0.06022599 -0.04638351 0.08814117 0.06779148 -0.0076349005
-0.08138963 -0.008872361 -0.06815515 -0.05820227 0.029839287 -0.018195882 0.0431671 -0.0064100605
0.12313667 -0.079793885 0.0820581 0.005114442 -0.076821 0.041914806 -0.06537721 0.055734567
0.10327949 0.0067208796 -0.009527514 -0.04428899 0.075294614 -0.06608009 -0.042058535 0.047799353
0.07536245 -0.06374559 0.08070534 -0.019010322 -0.010824517 -0.026878841 0.026185358 0.10899683
0.111366585 -0.07888277 0.13234043 0.022981273 -0.07057559 0.052433733 -0.051107377 0.038614694
0.04098428 0.008325833 -0.0009849333 0.024415493 -0.030457422 0.089314826 0.044529896 -0.0021032777
-0.050166186 0.05658684 0.08681591 0.07896967 -0.03632316 0.020965112 0.110700116 -0.0613283
0.058018032 -0.05843419 -0.090415806 0.009017725 -0.037988026 0.046249557 -0.014035906 0.084009685
0.0737005 0.0070901453 -0.0019696776 -0.061385628 0.10653184 0.04164824 -0.037015714 0.008713405
0.06805965 -0.06118968 -0.0260981 0.054565847 -0.021667272 0.040319536 -0.03225723 -0.0153325405
0.06724077 -0.06091753 0.08013941 0.02378141 -0.04817461 -0.024901424 0.03332761 -0.0513383
-0.022548817 -0.05665717 -0.05644399 -0.06662472 0.075683 -0.031143421 0.04166908 0.08029915
-0.016568216 0.07448991 -0.060434982 -0.05073774 -0.0053989855 -0.075680956 -0.06791284 -0.04136619
0.0045885914 -0.004902391 0.020308884 0.16227697 -0.079466544 -0.045448177 -0.11580649 0.044763915
0.029927203 0.027914595 -0.040665302 -0.033296224 -0.02402799 0.041489106 0.002230526 -0.09700468
0.027788453 -0.067491084 0.017641673 0.06374609 -0.00089901255 0.093777776 -0.052459747 -0.041775044
-0.012299651 -0.07865551 -0.07553223 0.062290974 0.121264525 -0.01794222 -0.05470987 -0.08840945
-0.11095828 -0.12322678 -0.017536983 -0.0827733 -0.05278984 0.021219535 0.13143282 0.013236954
-0.031358518 -0.015307844 -0.01777384 -0.023630667 -0.03829344 -0.0470171 -0.10492853 -0.081396416
-0.10923142 0.016277596 0.006694223 0.002191084 -0.08926594 0.0031843083 -0.06574701 0.05358578
-0.099918835 0.060030993 0.057934295 -0.0821685 -0.075582 0.034703173 -0.10918683 -0.05977693
-0.016187718 -0.0002196766 -0.024767857 0.13876908 0.023776991 0.022426438 -0.06834003 0.08033597
-0.07613927 -0.064111635 0.0108919 -0.006236046 -0.025732344 -0.14463319 0.0856617 -0.06458572
0.0043055615 0.056579404 -0.06505362 -0.07858648 -0.04434622 0.03571207 -0.049869385 0.0060994984
0.016890949 0.0571864 0.07700893 -0.040520262 -0.018534528 -0.075843915 -0.049999908 0.052492093
-0.038396046 -0.038186375 -0.054423947 0.027428119 -0.005430204 0.01719242 -0.0017780836 -0.01380315
0.031328578 -0.09564425 -0.02783885 0.0036477537 -0.007851557 -0.027127028 0.03672964 -0.060535207
00000000: c199 5b3d 944d 143d 16b9 51bd 5545 44bc
00000010: bea7 473d 368c 19bd 436a b1bc a155 bc3d
00000020: 03e4 0d3d d4f3 6e3a 5a4f 72bd 2b2b 823d
00000030: 0ad2 1a3d 8e65 a53d 27f1 d23c 35e1 003d
00000040: 99f1 ba3d ffb5 c33d 5d35 023e 6c08 26bc
00000050: dfb8 36bd d914 963c b8bf da3c 9c2a 82bd
00000060: d0bf 68bd 6184 333e 0524 f1ba 70eb 043c
00000070: 8b9d 4cbd 9db3 883a ed1b 4fbd c309 fcbb
00000080: 0b60 b33d 82c3 9abd 15bb b83c 87af 76bd
00000090: a3fc 3dbd 5c83 b43d 42d6 8a3d 302e fabb
000000a0: 9baf a6bd 615d 11bc ed94 8bbd 8165 6ebd
000000b0: 8571 f43c 880f 95bc fccf 303d 7c0b d2bb
000000c0: 142f fc3d fa6a a3bd 140e a83d 0d97 a73b
000000d0: 5454 9dbd dcae 2b3d 7de4 85bd ee49 643d
000000e0: 3284 d33d d33a dc3b 4a19 1cbc 5f68 35bd
000000f0: 1034 9a3d 0055 87bd 9245 2cbd 41c9 433d
00000100: a157 9a3d 0c8d 82bd d748 a53d 89bb 9bbc
00000110: 5159 31bc 0431 dcbc ad82 d63c bb39 df3d
00000120: 2a14 e43d 4a8d a1bd 4084 073e 3943 bc3c
00000130: ef89 90bd c1c4 563d f855 51bd 712a 1e3d
00000140: 22df 273d 1369 083c e118 81ba 0003 c83c
00000150: d881 f9bc b1ea b63d fb64 363d 25d7 09bb
00000160: 0f7b 4dbd 9ac7 673d 8acc b13d daba a13d
00000170: 98c7 14bd 07bf ab3c beb6 e23d 6233 7bbd
00000180: 51a4 6d3d b058 6fbd ec2b b9bd 14bf 133c
00000190: 5599 1bbd 2d70 3d3d dbf6 65bc 450d ac3d
000001a0: 4af0 963d 7354 e83b b515 01bb 7f6f 7bbd
000001b0: 5e2d da3d 5897 2a3d ca9d 17bd abc2 0e3c
000001c0: dc62 8b3d 08a2 7abd afcb d5bc 7080 5f3d
000001d0: 907f b1bc 1926 253d 2820 04bd 5635 7bbc
000001e0: 87b5 893d a984 79bd 2220 a43d 3bd1 c23c
000001f0: bd52 45bd 12fe cbbc 8882 083d 1c48 52bd
00000200: 4cb8 b8bc 5911 68bd d031 67bd 8b72 88bd
00000210: b0ff 9a3d 7d20 ffbc 32ad 2a3d e173 a43d
00000220: 11ba 87bc 2a8e 983d ac8a 77bd 60d2 4fbd
00000230: f9e9 b0bb 9efe 9abd e315 8bbd 986f 29bd
00000240: e55b 963b 3da4 a0bb d15e a63c ef2b 263e
00000250: 5bbf a2bd de27 3abd f42b edbd 5e5a 373d
00000260: e529 f53c 26ad e43c a990 26bd 9f61 08bd
00000270: 59d6 c4bc 7bf0 293d 042e 123b 64aa c6bd
00000280: 9ca4 e33c c438 8abd 4585 903c 4f8d 823d
00000290: b6ab 6bba 900e c03d 08e0 56bd 4f1c 2bbd
000002a0: 7a84 49bc 2416 a1bd a4b0 9abd d224 7f3d
000002b0: 8959 f83d 90fb 92bc 7517 60bd 0410 b5bd
000002c0: 183e e3bd 525e fcbd b8a9 8fbc 0c85 a9bd
000002d0: 293a 58bd 97d4 ad3c 5396 063e cfdf 583c
000002e0: ca71 00bd c0cd 7abc 729a 91bc 1a95 c1bc
000002f0: 95d9 1cbd 0195 40bd c5e4 d6bd 2ab3 a6bd
00000300: b9b4 dfbd 9858 853c 365b db3b 4a98 0f3b
00000310: 10d1 b6bd d4af 503b 5ea6 86bd c37c 5b3d
00000320: 3fa2 ccbd 0fe3 753d 834c 6d3d f547 a8bd
00000330: bcca 9abd ea24 0e3d 589d dfbd a7d8 74bd
00000340: 1b9c 84bc fd58 66b9 f6e5 cabc 7b19 0e3e
00000350: f7c7 c23c a6b7 b73c dcf5 8bbd 2f87 a43d
00000360: e8ee 9bbd f64c 83bd f173 323c bf57 ccbb
00000370: a3cc d2bc b91a 14be 676f af3d 8545 84bd
00000380: ab15 8d3b cebf 673d d53a 85bd f3f1 a0bd
00000390: 62a4 35bd d246 123d d743 4cbd 4dde c73b
000003a0: e35e 8a3c 493c 6a3d dcb6 9d3d 93f8 25bd
000003b0: b9d5 97bc 0e54 9bbd b4cc 4cbd f301 573d
000003c0: 2c45 1dbd 5169 1cbd a5eb 5ebd efb0 e03c
000003d0: daef b1bb 1ed7 8c3c 960e e9ba 9b26 62bc
000003e0: 6552 003d 22e1 c3bd 4d0e e4bc 270f 6f3b
000003f0: d1a3 00bc 8039 debc d271 163d c4f3 77bd

feature_extractor.1.weight f4 [256]
1.0093375 1.0248849 0.9815443 0.97539127 1.0014783 0.9431989 0.9483131 1.0467178
1.0108695 0.9996841 1.1635077 0.96540016 0.93793947 1.0867074 1.0069954 1.0186167
1.1064881 1.0213761 1.0167971 0.9626424 0.95749205 0.99159545 0.9966773 0.9473441
0.9096869 1.0012257 0.9538915 0.97925115 0.98794866 0.9790994 0.93449515 0.9758874
1.0765682 0.9200335 0.99011105 0.9124985 0.94732875 1.005611 1.061428 0.9093287
1.3016311 0.92963594 0.83223665 0.95372176 1.0173564 0.97217584 0.997109 0.9880244
1.1187322 0.8973472 1.0795478 0.9788928 0.911079 0.9765435 0.94110566 0.94051427
1.0955828 0.97585666 0.9455753 0.9504129 0.99123234 1.08464 0.959966 0.9096475
0.9568903 0.89327097 0.9904517 0.97797054 0.9457856 0.9791188 1.0057198 1.0479579
1.0549145 1.0798275 1.0887343 0.91793114 0.9201443 0.9529487 0.94196147 1.0219303
0.9431097 0.98157495 0.94242644 0.9379024 0.9681517 1.0479974 0.9441367 0.97737944
0.94096637 1.0022007 1.0984621 1.0682216 0.91479063 0.9942988 1.0285785 0.9091216
1.0347499 0.916537 0.89314586 0.9880806 0.9870019 1.0422328 0.9561204 1.0253764
1.0723532 0.9195216 0.96227276 0.9274864 1.0740685 0.9832492 0.97425836 1.0100379
1.0377982 0.8990649 0.9539409 1.0618159 0.9643903 0.9781847 0.9645899 0.9541313
0.98355883 0.9460522 1.0662994 0.9448662 1.1671444 0.946159 0.9936128 0.9506428
0.9570848 0.95611745 0.94429344 0.92468727 1.0865211 0.9519439 1.0155573 1.1129814
0.9479113 1.0819927 1.1784607 0.9634032 0.97371894 0.9025352 0.8808215 0.97566706
0.9626303 0.9490373 0.9411429 1.1821406 1.146027 0.97471416 1.2097595 1.0096716
1.0502775 0.97387886 0.92912406 0.9537794 0.9966815 0.865046 0.95712215 1.2449543
1.0162085 0.9473693 0.9830779 0.9951018 0.98524094 1.1267517 0.9349125 0.9416726
0.97587854 0.9303828 0.9321205 1.0031539 1.1405393 0.93535423 0.91076887 1.145425
0.9107951 1.0652947 0.96040046 0.93991625 0.9712231 0.9562716 1.0474843 0.93676436
0.9564834 0.9958557 1.0158898 0.9866754 0.95515597 1.0474479 0.88880414 0.916661
0.8914735 0.9888029 0.9901498 0.90206885 0.9149161 0.9632706 0.9744285 1.0079025
1.3515489 0.9844879 1.0246136 1.2685454 0.9799823 1.0120326 0.87353 0.93168324
0.9202133 0.9716626 0.93022954 1.0173527 0.9914832 0.99006104 0.92948097 1.0726161
0.9107949 0.91882867 0.9826803 0.9714173 0.94314843 1.0587802 0.95996094 0.93205017
1.0551335 1.0154966 0.9605959 1.1576787 0.9357338 1.0292937 0.9278461 1.030547
1.0092772 1.0170943 1.0349256 0.9857057 0.948813 0.89887124 0.9707971 0.97400147
0.9781764 0.91366476 0.95155984 0.9500978 0.94710356 0.9859318 0.9442163 0.9416841
0.962 1.1231384 0.98597157 1.1415846 0.94624865 0.96065426 0.9639749 0.93377113
00000000: f931 813f 6e2f 833f 7d46 7b3f 3eb3 793f
00000010: 7130 803f 7c75 713f a6c4 723f d9fa 853f
00000020: 2c64 813f 4ceb 7f3f d2ed 943f 7724 773f
00000030: cd1c 703f 3a19 8b3f 3ae5 803f 0862 823f
00000040: 67a1 8d3f 74bc 823f 6826 823f bb6f 763f
00000050: 331e 753f 33d9 7d3f 3e26 7f3f 2585 723f
00000060: 3ee1 683f 2a28 803f 3c32 743f 34b0 7a3f
00000070: 34ea 7c3f 42a6 7a3f 133b 6f3f c2d3 793f
00000080: fdcc 893f 5187 6b3f eb77 7d3f 8099 693f
00000090: 2384 723f dcb7 803f dfdc 873f c4c9 683f
000000a0: d99b a63f 9ffc 6d3f 760d 553f 1c27 743f
000000b0: bc38 823f 84e0 783f 8942 7f3f 2bef 7c3f
000000c0: 9e32 8f3f 8cb8 653f 9f2e 8a3f b898 7a3f
000000d0: 793c 693f c1fe 793f 4dec 703f 8bc5 703f
000000e0: 0f3c 8c3f bed1 793f 3911 723f 434e 733f
000000f0: 67c1 7d3f 7cd5 8a3f 55c0 753f a9de 683f
00000100: c3f6 743f 68ad 643f 3e8e 7d3f 475c 7a3f
00000110: 011f 723f 88a7 7a3f 6dbb 803f 7c23 863f
00000120: 7007 873f ca37 8a3f a55b 8b3f 89fd 6a3f
00000130: 948e 6b3f 72f4 733f 6324 713f 9dce 823f
00000140: a36f 713f 7f48 7b3f dc42 713f 5f1a 703f
00000150: cad8 773f c724 863f f1b2 713f 8a35 7a3f
00000160: 2ce3 703f 1d48 803f 689a 8c3f 7cbb 883f
00000170: b82f 6a3f 5e8a 7e3f 76a8 833f 31bc 683f
00000180: af72 843f 2ba2 6a3f 35a5 643f daf2 7c3f
00000190: 28ac 7c3f e267 853f 4ec4 743f 893f 833f
000001a0: df42 893f c465 6b3f 8257 763f c06f 6d3f
000001b0: 147b 893f 38b6 7b3f ff68 793f ec48 813f
000001c0: 92d6 843f 1e29 663f 7935 743f 95e9 873f
000001d0: 48e2 763f 506a 7a3f 5def 763f f341 743f
000001e0: 83ca 7b3f 7a30 723f 807c 883f c0e2 713f
000001f0: fd64 953f 7a37 723f 695d 7e3f 545d 733f
00000200: 8203 753f 1dc4 743f 37bd 713f 4eb8 6c3f
00000210: 2013 8b3f 98b2 733f c8fd 813f 2d76 8e3f
00000220: 51aa 723f bd7e 8a3f cdd7 963f 98a1 763f
00000230: a545 793f 8c0c 673f 857d 613f 51c5 793f
00000240: f06e 763f 1cf4 723f beee 703f 6250 973f
00000250: 03b1 923f de86 793f 66d9 9a3f eb3c 813f
00000260: 7e6f 863f 2050 793f 13db 6d3f e32a 743f
00000270: 8526 7f3f a873 5d3f f505 753f aa5a 9f3f
00000280: 1f13 823f cb86 723f feaa 7b3f febe 7e3f
00000290: c038 7c3f 6639 903f 6d56 6f3f 7511 713f
000002a0: 2dd3 793f 912d 6e3f 739f 6e3f 5967 803f
000002b0: 31fd 913f 6073 6f3f 2628 693f 499d 923f
000002c0: de29 693f 945b 883f cedc 753f 5a9e 703f
000002d0: 14a2 783f 37ce 743f f713 863f cacf 6f3f
000002e0: 19dc 743f 66f0 7e3f ad08 823f c296 7c3f
000002f0: 1a85 743f c612 863f ab88 633f 4caa 6a3f
00000300: 9b37 643f 3022 7d3f 757a 7d3f fced 663f
00000310: f137 6a3f e798 763f 2574 793f f302 813f
00000320: 8eff ac3f 6607 7c3f 8a26 833f b25f a23f
00000330: 1fe0 7a3f 498a 813f a99f 5f3f cb82 6e3f
00000340: 1993 6b3f e1be 783f 8623 6e3f 9d38 823f
00000350: d8d1 7d3f a474 7d3f 77f2 6d3f 7c4b 893f
00000360: db29 693f 5b38 6b3f f090 7b3f ceae 783f
00000370: 2d72 713f 1c86 873f 00c0 753f d79a 6e3f
00000380: 9d0e 873f cbfb 813f 9de9 753f d12e 943f
00000390: 408c 6f3f e5bf 833f 5287 6d3f f7e8 833f
000003a0: ff2f 813f 2530 823f 7178 843f 3557 7c3f
000003b0: 69e5 723f 6d1c 663f 2986 783f 2958 793f
000003c0: c569 7a3f efe5 693f 6d99 733f 9c39 733f
000003d0: 6175 723f 0766 7c3f 29b8 713f 3612 713f
000003e0: a245 763f 00c3 8f3f a268 7c3f 721f 923f
000003f0: 5a3d 723f 70ed 753f 0fc7 763f a00b 6f3f

feature_extractor.1.bias f4 [256]
0.09050296 -0.0004918311 -0.024860268 -0.030847332 -0.03584392 -0.055847082 -0.03517996 0.090031296
-0.045857213 0.024766644 0.04390169 0.05268235 -0.012502395 0.059612002 0.011937485 0.026381053
0.04871795 0.010015432 0.019359006 -0.06390519 -0.052693356 -0.009222607 -0.009947423 -0.06290479
-0.08411197 0.1009793 -0.020572953 -0.010952683 -0.024207294 -0.018679013 -0.0378299 -0.039924465
-0.0032795223 -0.095400155 -0.0025863294 -0.10869504 -0.021605005 0.035292596 -0.022813011 -0.033722214
0.06396049 -0.014657688 -0.1750858 -0.068078406 0.012071763 -0.0112683065 -0.008404595 -0.019659061
0.060401194 -0.10883231 0.04001461 -0.014669494 -0.15056664 0.010087659 -0.078973144 -0.0022996874
0.050883215 -0.0320302 -0.06850648 -0.033578947 -0.0038152328 -0.0020414523 -0.0057816375 -0.000963101
0.018523164 -0.08990301 0.043522663 0.005477062 -0.009226394 -0.02787048 0.004906702 0.051997658
0.04163381 0.011952886 0.04560611 -0.025724288 -0.08869912 0.042479776 -0.061005916 -0.024129728
0.030688448 -0.01555888 -0.008092543 -0.016559133 -0.049591202 0.009717176 0.0073316763 -0.014830831
-0.08479072 -0.007446417 -0.0032162182 -0.015627963 -0.05627371 0.041162882 0.12632887 -0.120666124
-0.013996957 -0.09932459 -0.12204252 -0.018426869 0.0029531016 0.037545834 -0.030900147 -0.0006982459
0.03820216 -0.043229286 0.008941758 -0.073324785 0.04278293 0.038179368 -0.035566144 -0.019346256
-0.0045568184 -0.10678063 -0.06952312 0.011384016 -0.052091528 -0.0013519294 -0.009742181 -0.013388279
0.06502603 -0.08233731 0.035903286 0.0063187755 0.02173894 -0.029059894 0.0029028496 -0.049453165
-0.0762344 -0.061377507 -0.05224671 -0.060792625 0.0015431447 -0.047570027 0.04195445 0.00024072715
-0.03940852 -0.004198072 0.027433204 -0.054832242 -0.04411445 -0.103394546 -0.13705187 -0.0163793
0.0036129325 -0.06265311 -0.032233406 0.08199033 0.013699647 -0.021678485 0.029430212 0.016478436
-0.007851408 -0.009584033 -0.033293888 -0.02304419 -0.045924097 -0.015735755 0.04880567 0.048810307
-0.047908537 -0.07252824 -0.030872416 -0.04133555 -0.0009358566 0.022142893 -0.058371864 -0.0511366
-0.037132867 -0.087980665 -0.11874768 0.03725788 0.088117495 -0.011108533 -0.055378154 0.0019039782
-0.12053162 -0.018488146 -0.007906296 -0.05973683 -0.054744538 0.00897807 0.041508045 -0.026435759
-0.06943136 0.005861588 -0.024893865 -0.0419604 -0.06734596 0.033790093 -0.12206988 -0.094622426
-0.13431655 0.017917179 -0.044229265 -0.0060704974 -0.10134628 -0.012953583 -0.041242942 0.02018468
0.06332835 0.0013185681 -0.02590005 0.04118263 -0.08129875 -0.040422726 -0.10621852 -0.07896294
-0.04260158 -0.03115322 -0.05903158 0.0813324 -0.015095271 0.0073736934 -0.07827775 -0.010842438
-0.08856028 -0.048787877 -0.047225375 -0.016953044 -0.048415054 -0.041918926 0.07191039 -0.1019652
-0.013507122 -0.034772757 -0.038694475 0.018804317 -0.09261576 -0.016486885 -0.08252103 -0.01212349
0.038105942 -0.010899285 0.03682132 -0.021380683 -0.048456527 -0.113278195 -0.046433624 -0.029854909
-0.0027537378 -0.08466814 -0.019440666 0.029182022 -0.044643924 0.010008533 -0.027348056 -0.030462936
-0.012455884 0.011023919 -0.060565565 0.06522313 -0.035285767 -0.06633684 0.0032140985 -0.044107813
00000000: 9e59 b93d 3aee 00ba c3a7 cbbc 8bb3 fcbc
00000010: 13d1 12bd e9bf 64bd dd18 10bd 5462 b83d
00000020: c6d4 3bbd 6be3 ca3c 42d2 333d 73c9 573d
00000030: d8d6 4cbc b72b 743d 7195 433c 141d d83c
00000040: 798c 473d c417 243c c796 9e3c b9e0 82bd
00000050: fdd4 57bd 6b1a 17bc 84fa 22bc 3ad4 80bd
00000060: e642 acbd 3cce ce3d 9c88 a8bc e272 33bc
00000070: 604e c6bc bb04 99bc 86f3 1abd d687 23bd
00000080: 41ed 56bb 2861 c3bd 687f 29bb 819b debd
00000090: fbfc b0bc f88e 103d 5ae2 babc 4e20 0abd
000000a0: b8fd 823d cd26 70bc b149 33be b16c 8bbd
000000b0: a5c8 453c b49e 38bc 6db3 09bc 0a0c a1bc
000000c0: 3e67 773d 79e3 debd 5ce6 233d 5158 70bc
000000d0: 242e 1abe b546 253c acbc a1bd 5ab6 16bb
000000e0: eb6a 503d 1932 03bd 204d 8cbd 148a 09bd
000000f0: fc08 7abb e3c9 05bb e473 bdbb 9d78 7cba
00000100: e4bd 973c 121f b8bd d244 323d ed78 b33b
00000110: 4d2a 17bc a250 e4bc 66c8 a03b 7ffb 543d
00000120: 3788 2a3d 0ad6 433c 79cd 3a3d bebb d2bc
00000130: e2a7 b5bd 46ff 2d3d 57e1 79bd b5ab c5bc
00000140: 5766 fb3c acea 7ebc 9696 04bc 05a7 87bc
00000150: 2520 4bbd ca34 1f3c 8f3e f03b 04fd 72bc
00000160: c2a6 adbd 1301 f4bb 30c7 52bb 3706 80bc
00000170: 437f 66bd 699a 283d 5b5c 013e cd1f f7bd
00000180: 7e53 65bc b16a cbbd 6ef1 f9bd f2f3 96bc
00000190: d388 413b a9c9 193d 4e22 fdbc 7d0a 37ba
000001a0: de79 1c3d 3111 31bd 7480 123c 4e2b 96bd
000001b0: 273d 2f3d f861 1c3d cead 11bd 0a7c 9ebc
000001c0: 5d51 95bb ceaf dabd 2362 8ebd 0684 3a3c
000001d0: ed5d 55bd 3933 b1ba ab9d 1fbc 835a 5bbc
000001e0: 5e2c 853d 77a0 a8bd 530f 133d bb0d cf3b
000001f0: dd15 b23c 040f eebc bc3d 3e3b 678f 4abd
00000200: c820 9cbd fb66 7bbd a500 56bd b001 79bd
00000210: 5843 ca3a cad8 42bd 6ed8 2b3d b46b 7c39
00000220: d46a 21bd fb8f 89bb 99bb e03c c697 60bd
00000230: 5bb1 34bd 85c0 d3bd 5357 0cbe e22d 86bc
00000240: f3c6 6c3b 4650 80bd 2d07 04bd 8cea a73d
00000250: 7c74 603c 1497 b1bc a117 f13c c9fd 863c
00000260: 31a3 00bc 5906 1dbc 2c5f 08bd 2bc7 bcbc
00000270: e81a 3cbd 45e8 80bc 74e8 473d 51ed 473d
00000280: be3b 44bd b089 94bd 26e8 fcbc 774f 29bd
00000290: 4654 75ba 0365 b53c 5617 6fbd 9d74 51bd
000002a0: a218 18bd 352f b4bd fc31 f3bd b89b 183d
000002b0: f276 b43d 9000 36bc 34d4 62bd e88e f93a
000002c0: 48d9 f6bd 7474 97bc 6989 01bc 9bae 74bd
000002d0: cf3b 60bd c118 133c 5704 2a3d ce8f d8bc
000002e0: 0732 8ebd 9012 c03b 38ee cbbc abde 2bbd
000002f0: aeec 89bd 7b67 0a3d c6ff f9bd 67c9 c1bd
00000300: 478a 09be 0cc7 923c bf29 35bd 06eb c6bb
00000310: a38e cfbd 443b 54bc 5cee 28bd 585a a53c
00000320: 4bb2 813d ced3 ac3a 572c d4bc 1eaf 283d
00000330: f67f a6bd 4d92 25bd 1889 d9bd 52b7 a1bd
00000340: ff7e 2ebd 0a35 ffbc 19cb 71bd 9a91 a63d
00000350: 2852 77bc 069f f13b 1650 a0bd 7ba4 31bc
00000360: 185f b5bd ccd5 47bd 656f 41bd 1ce1 8abc
00000370: dd4e 46bd 2eb3 2bbd c145 933d 21d3 d0bd
00000380: fa4c 5dbc e16d 0ebd 197e 1ebd 830b 9a3c
00000390: 55ad bdbd 810f 87bc c900 a9bd 9aa1 46bc
000003a0: fa14 1c3d ea92 32bc f4d1 163d 8b26 afbc
000003b0: 5a7a 46bd 66fe e7bd 2f31 3ebd 4892 f4bc
000003c0: 0e78 34bb 7d66 adbd 0842 9fbc 230f ef3c
000003d0: 8cdc 36bd d4fa 233c 0809 e0bc 688d f9bc
000003e0: c413 4cbc ab9d 343c 9913 78bd b493 853d
000003f0: cf87 10bd 9cdb 87bd a0a3 523b 65aa 34bd

feature_extractor.4.weight f4 [256, 256]
0.121512 0.0041472367 -0.12207601 0.044287704 0.03442513 -0.0066049816 -0.039675463 0.022045182
-0.11222879 0.10569257 0.12406873 -0.045203034 0.095666856 0.081420116 0.2602338 -0.13217077
0.01324687 0.07191633 0.09219061 0.0697688 0.05117109 0.03530054 0.050947953 -0.034470867
-0.089555666 0.05980883 0.16121419 -0.033245724 -0.070317455 -0.028170353 0.032193523 0.1702201
0.022722745 -0.012643122 0.07473081 -0.025763104 0.011551992 0.021056972 0.14748934 0.18638031
-0.024347475 -0.0058811097 -0.08145618 0.05787231 -0.005936297 -0.055493973 0.08263874 0.014671965
0.21297884 -0.07181667 -0.052146085 0.115973346 -0.14149377 0.2617761 0.014805374 0.020177316
0.051318347 0.02754936 0.098871894 -0.02669945 0.07068415 0.13221815 0.09115295 0.032538727
0.020015486 -0.24143836 0.050477426 0.25537837 -0.060075294 0.0053468468 0.13551539 0.010759481
0.1170509 0.22710612 -0.06545793 0.14812566 0.21268874 0.1644799 -0.098100975 0.17155188
0.1554822 0.07166351 0.015664533 -0.22098756 -0.0057146437 -0.012144197 0.005560515 0.08670582
-0.17337006 0.027763046 -0.100250274 0.2107884 0.03640113 0.011281867 0.11097372 0.029827282
0.05841677 0.15211524 0.0038050846 -0.052821506 -0.044566143 -0.1349674 0.0112971375 0.12704694
0.0569156 0.09384047 0.028156977 0.02012121 -0.07352755 -0.004968599 -0.050248403 -0.12354265
0.06494057 0.14591546 0.14258997 0.21322063 0.07763276 0.077913955 -0.02984614 -0.10210518
0.023851817 0.043810774 0.05041249 0.0003608336 0.014094881 0.13290726 -0.08988506 0.058345523
0.25187242 -0.037362125 -0.08326881 0.1346839 0.04103133 -0.03639103 -0.030194817 0.069053546
-0.08085417 0.12574692 0.06088319 0.049882185 -0.082384385 -0.08675302 -0.04152956 0.029422618
-0.047152814 0.14197268 0.02880986 -0.018329224 0.0114947315 -0.009102646 0.11116033 -0.008882266
0.059176594 -0.0878515 -0.093464814 -0.0033613523 -0.027668392 0.036821507 0.051498067 0.046471566
-0.061492432 -0.08804739 -0.024655676 0.1266148 0.11063009 0.16855161 -0.028506914 -0.020559527
-0.095771104 0.09836173 -0.014806914 0.27262133 0.06349818 -0.10863278 0.080780186 -0.047287397
0.030616554 0.09281973 0.08263126 0.021794349 0.023662511 0.045286343 0.24320698 0.039497368
0.071754426 0.15468146 -0.10847285 0.027761083 0.19611749 0.122722216 0.07797756 0.11968284
-0.037545014 0.041876324 -0.0679513 -0.087456614 0.09318452 0.03924555 -0.13450478 0.003837693
-0.13084894 -0.007157532 0.099572405 0.045646932 -0.08863774 -0.030063964 -0.08412133 0.059768036
0.04960021 -0.02086106 -0.013021187 0.013737907 0.1933352 0.20255724 0.022258513 0.06218753
-0.014341752 0.15055792 0.06608241 0.13564043 0.0066003925 0.12772763 -0.12561536 0.093402356
0.07348232 -0.020297773 0.016247783 0.047617637 0.020024665 0.10552679 0.040953547 0.032998893
0.14462496 -0.026298372 -0.11026882 -0.08237367 -0.09491259 0.040621705 -0.07552766 0.13370216
-0.050308455 0.051082667 -0.019106418 0.008160667 -0.096162766 0.18816966 0.062128246 0.14057268
0.06374155 0.0792752 0.115609854 -0.0023580878 0.19871445 -0.0065351743 -0.070970334 0.00974315
00000000: 49db f83d 8be5 873b fd02 fabd 0667 353d
00000010: 5d01 0d3d 9a6e d8bb bd82 22bd 1998 b43c
00000020: 35d8 e5bd 5975 d83d bf17 fe3d d126 39bd
00000030: fcec c33d 97bf a63d 5d3d 853e c657 07be
00000040: 6609 593c de48 933d 6ece bc3d f2e2 8e3d
00000050: c798 513d 4d97 103d cdae 503d 5331 0dbd
00000060: f668 b7bd 1bfa 743d 5515 253e ab2c 08bd
00000070: 9902 90bd 83c5 e6bc 5bdd 033d 2e4e 2e3e
00000080: 0d25 ba3c 1925 4fbc 780c 993d 250d d3bc
00000090: 9144 3d3c ac7f ac3c 7207 173e 7bda 3e3e
000000a0: 5b74 c7bc 53b6 c0bb 7fd2 a6bd 840b 6d3d
000000b0: 4585 c2bb a64d 63bd 803e a93d ae62 703c
000000c0: 2017 5a3e 9e14 93bd 2297 55bd 6f83 ed3d
000000d0: bee3 10be 8407 863e 3d92 723c e64a a53c
000000e0: 3033 523d 32af e13c 597d ca3d ceb8 dabc
000000f0: dac2 903d 3264 073e 66ae ba3d 5447 053d
00000100: 84f7 a33c 9e3b 77be 6bc1 4e3d f4c0 823e
00000110: 8311 76bd 9a34 af3b 8cc4 0a3e 8948 303c
00000120: 62b8 ef3d 828e 683e cf0e 86bd 41ae 173e
00000130: 14cb 593e 6b6d 283e 2ae9 c8bd 4cab 2f3e
00000140: ba36 1f3e 51c4 923d e852 803c 904a 62be
00000150: e841 bbbb 74f8 46bc fb34 b63b d292 b13d
00000160: ec87 31be 546f e33c 0450 cdbd ead8 573e
00000170: 5a19 153d 94d7 383c 3146 e33d 5858 f43c
00000180: 6c46 6f3d 19c4 1b3e ba5e 793b 5d5b 58bd
00000190: fd8a 36bd e534 0abe a117 393c 9818 023e
000001a0: 5520 693d 6f2f c03d 76a9 e63c 3cd5 a43c
000001b0: 9d95 96bd a1cf a2bb 45d1 4dbd ee03 fdbd
000001c0: 90ff 843d dd6a 153e 1b03 123e 8256 5a3e
000001d0: edfd 9e3d 5a91 9f3d e47f f4bc 851c d1bd
000001e0: e364 c33c ed72 333d 547d 4e3d 442e bd39
000001f0: 37ee 663c d718 083e a915 b8bd b7fb 6e3d
00000200: 6cf5 803e 0709 19bd d688 aabd 94ea 093e
00000210: 7810 283d c30e 15bd 1f5b f7bc f26b 8d3d
00000220: df96 a5bd cdc3 003e a760 793d 4351 4c3d
00000230: 25b9 a8bd 91ab b1bd e61a 2abd b407 f13c
00000240: 4f23 41bd 4961 113e a802 ec3c 2b27 96bc
00000250: 6654 3c3c 4423 15bc 07a8 e33d ec86 11bc
00000260: 2863 723d 7deb b3bd 7b6a bfbd 224a 5cbb
00000270: d3a8 e2bc 26d2 163d a3ef 523d f858 3e3d
00000280: 7ddf 7bbd 3152 b4bd b3fa c9bc 4fa7 013e
00000290: 0792 e23d cb98 2c3e 5587 e9bc 746c a8bc
000002a0: a423 c4bd e071 c93d b398 72bc 0695 8b3e
000002b0: 550b 823d dd7a debd 1570 a53d 6eb0 41bd
000002c0: 91cf fa3c 4518 be3d 943a a93d 108a b23c
000002d0: e2d7 c13c 2c7e 393d 400b 793e fec7 213d
000002e0: fcf3 923d d164 1e3e 0327 debd 366b e33c
000002f0: 06d3 483e c955 fb3d b3b2 9f3d 471c f53d
00000300: cdc8 19bd 8286 2b3d 0d2a 8bbd 741c b3bd
00000310: 87d7 be3d f1bf 203d 9fbb 09be ce81 7b3b
00000320: 44fd 05be bb89 eabb 9eec cb3d 47f8 3a3d
00000330: b487 b5bd b448 f6bc ce47 acbd 54cf 743d
00000340: 9729 4b3d d0e4 aabc d156 55bc f514 613c
00000350: aaf9 453e 2a6b 4f3e 7c57 b63c 5ab8 7e3d
00000360: abf9 6abc db2b 1a3e 3756 873d 53e5 0a3e
00000370: 1b48 d83b 08cb 023e 50a1 00be bc49 bf3d
00000380: e67d 963d 8447 a6bc 121a 853c b60a 433d
00000390: c40a a43c 6e1e d83d e8be 273d d929 073d
000003a0: 9118 143e af6f d7bc 9ed4 e1bd 87b3 a8bd
000003b0: 8861 c2bd f262 263d 3fae 9abd 38e9 083e
000003c0: 3d10 4ebd 0f3c 513d 1085 9cbc 51b4 053c
000003d0: fcf0 c4bd 8caf 403e 307a 7e3d 49f2 0f3e
000003e0: ee8a 823d 095b a23d dcc4 ec3d 268a 1abb
000003f0: cd7b 4b3e 0425 d6bb e558 91bd bca1 1f3c

feature_extractor.4.bias f4 [256]
0.04239789 0.014612773 -0.17542711 -0.0013119988 -0.005254535 0.02610443 0.09928176 0.025380503
0.017911587 0.026967768 0.06714652 0.0125625795 0.05726761 -0.29284763 0.049579274 0.0805829
0.009611071 0.038375717 -0.28334755 -0.268346 -0.0043732896 -0.017671296 0.0036745875 0.03347038
0.04413088 0.045212246 0.07032976 0.059845965 0.04054391 0.004029909 0.012578186 0.018864702
0.011571601 0.04164087 0.04393624 0.06301104 0.033765737 0.11290659 0.0355044 0.024790013
0.020073617 -0.022378549 0.044157688 0.0099238865 0.030747486 0.021784035 -0.0016797876 0.013235037
-0.29633716 0.073851444 -0.008772496 0.018504031 0.018612808 0.019730859 0.020051971 0.008738956
0.01763326 0.040957704 0.04510137 0.042020213 0.002020604 0.03310134 0.07526591 0.04237448
0.041563544 0.009518811 0.041819602 -0.30329862 0.0679824 0.05034218 0.038600802 0.025997646
-0.2943431 -0.28642023 0.020626355 0.0014677091 0.026392637 0.02255361 0.029939268 0.020449731
0.040528867 0.02899884 -0.29532367 0.022676881 0.015429571 0.035833426 -0.006050596 -0.28077605
0.025194552 -0.22695069 0.021087985 0.035162423 0.04587056 0.04172181 0.027343325 -0.18487564
-0.0060329284 -0.28238857 0.031956024 0.027067026 0.011648757 0.027012916 0.014424363 -0.0041498006
-0.018427351 0.00934415 0.008766551 -0.002044029 0.033106163 -0.008852945 0.02919726 0.022551587
0.05940293 0.017344363 0.015196361 0.028712874 0.0072752065 -0.0060412064 0.02281283 0.046230014
0.006810283 0.027323691 0.018116588 -0.3038024 0.012413773 0.021299208 0.029057346 -0.013351289
0.0032364156 -0.014531883 0.057188272 0.015409901 0.008247885 0.077765144 0.013150509 0.008503836
-0.07944037 0.028230535 0.034118608 0.03436436 0.037758917 0.105821714 -0.010080276 0.03535151
0.02635555 0.039149694 0.013363637 0.056105305 0.0318375 -0.27869713 0.009811079 0.062832065
0.023905754 0.011778272 0.026067825 0.016131023 0.04476732 -0.00487982 0.023794124 0.034482177
0.010548508 0.06565695 0.054312274 -0.0022595557 0.0018596695 0.022637306 -0.00039770556 0.038703155
0.038085993 0.025545908 0.03340853 -0.20130576 0.005732806 -0.00958137 -0.2917489 0.013697547
0.033687785 0.0319543 0.034516066 -0.026950357 0.010362055 0.035195626 0.03520899 0.024645729
0.071806476 0.014340533 -0.011643318 0.018306887 -0.120351516 0.04096276 -0.0048255594 0.020983933
0.03069196 0.076299064 0.032992907 0.014923036 0.026397435 0.006623184 0.0390645 0.026137706
0.016904889 0.004519011 0.025490763 0.008628317 0.026805088 0.030273233 0.038640965 0.009757377
0.009780518 -0.27739 0.025688063 0.007538337 0.030357288 0.0068077394 0.006337064 0.03300853
-0.011615083 0.03128221 0.038658313 0.025971916 0.0027716835 -0.2632946 -0.26367506 0.0049871085
-0.27123177 0.024259869 -0.0022357346 0.07650529 0.014444356 0.029512905 0.0019637113 0.010977676
0.0073167128 0.00026287258 -0.024946984 0.038920276 0.037200768 0.0034777755 -0.28258437 0.03590954
0.025072936 0.037124883 0.0012175277 0.012429862 -0.0076628285 -0.037609506 0.055712063 -0.28082684
0.0009346502 0.013201481 0.004568554 0.03331027 0.03161894 0.043218527 0.052778292 0.011169326
00000000: 69a9 2d3d 6a6a 6f3c 2aa3 33be 60f7 abba
00000010: 3c2e acbb f5d8 d53c 3c54 cb3d c6ea cf3c
00000020: 52bb 923c 82eb dc3c 1d84 893d 47d3 4d3c
00000030: 7191 6a3d 20f0 95be a313 4b3d a608 a53d
00000040: c177 1d3c db2f 1d3d ee12 91be a664 89be
00000050: d04d 8fbb 65c3 90bc 59d1 703b 3d18 093d
00000060: 95c2 343d 7a30 393d 0d09 903d 0b21 753d
00000070: 5f11 263d 540d 843b bc14 4e3c 268a 9a3c
00000080: d096 3d3c 9e8f 2a3d 7df6 333d ef0b 813d
00000090: f14d 0a3d 923b e73d 106d 113d 6d14 cb3c
000000a0: 6d71 a43c 3853 b7bc b1de 343d cc97 223c
000000b0: 27e2 fb3c 6f74 b23c 522c dcba c5d7 583c
000000c0: 81b9 97be 6d3f 973d 84ba 0fbc c495 973c
000000d0: e379 983c 9ca2 a13c 0844 a43c d72d 0f3c
000000e0: a073 903c 44c3 273d 37bc 383d 631d 2c3d
000000f0: 1c6c 043b 4595 073d 0325 9a3d dd90 2d3d
00000100: 893e 2a3d c9f4 1b3c 084b 2b3d f549 9bbe
00000110: 5b3a 8b3d 9a33 4e3d e01b 1e3d 04f9 d43c
00000120: 24b4 96be aca5 92be 9af8 a83c 2560 c03a
00000130: 5f35 d83c 59c2 b83c 3243 f53c 3286 a73c
00000140: 9901 263d fa8e ed3c aa34 97be dec4 b93c
00000150: 50cc 7c3c 12c6 123d 1444 c6bb e1c1 8fbe
00000160: ce64 ce3c c365 68be b6c0 ac3c 7906 103d
00000170: c5e2 3b3d 7de4 2a3d 1cff df3c 0a50 3dbe
00000180: dfaf c5bb 3c95 90be 52e4 023d abbb dd3c
00000190: 6eda 3e3c 314a dd3c 2a54 6c3c 0dfb 87bb
000001a0: f5f4 96bc 3518 193c 94a1 0f3c 1ef5 05bb
000001b0: 549a 073d f10b 11bc 182f ef3c 1bbe b83c
000001c0: 7d50 733d c415 8e3c 28fa 783c 4337 eb3c
000001d0: db64 ee3b 50f5 c5bb f9e1 ba3c af5b 3d3d
000001e0: cb28 df3b efd5 df3c 3d69 943c fd8b 9bbe
000001f0: 2363 4b3c ad7b ae3c ac09 ee3c 5dbf 5abc
00000200: 0b1a 543b 2317 6ebc 403e 6a3d cf79 7c3c
00000210: 2322 073c 5543 9f3d 3c75 573c ac53 0b3c
00000220: a2b1 a2bd b943 e73c f4bf 0b3d a5c1 0c3d
00000230: 18a9 1a3d 0eb9 d83d be27 25bc bfcc 103d
00000240: 98e7 d73c 6e5b 203d 28f3 5a3c adce 653d
00000250: 0a68 023d 64b1 8ebe a6be 203c 19ae 803d
00000260: 00d6 c33c a7f9 403c 318c d53c 3525 843c
00000270: f05d 373d e6e6 9fbb e5eb c23c 2f3d 0d3d
00000280: a6d3 2c3c 2777 863d 8c76 5e3d 0e15 14bb
00000290: 27c0 f33a df71 b93c 2383 d0b9 3387 1e3d
000002a0: 0f00 1c3d a745 d13c 62d7 083d 1923 4ebe
000002b0: 43da bb3b 2efb 1cbc 1d60 95be ad6b 603c
000002c0: 34fc 093d 83e2 023d b860 0d3d ffc6 dcbc
000002d0: 9cc5 293c 4a29 103d 4d37 103d d7e5 c93c
000002e0: 460f 933d 8ef4 6a3c 9ec3 3ebc 53f8 953c
000002f0: db7a f6bd 91c8 273d ba1f 9ebb 7fe6 ab3c
00000300: b56d fb3c af42 9c3d 9223 073d c07f 743c
00000310: 6f3f d83c 4b07 d93b 1902 203d be1e d63c
00000320: 1f7c 8a3c 3614 943b 01d2 d03c c95d 0d3c
00000330: 5896 db3c 92ff f73c fd45 1e3d 68dd 1f3c
00000340: 773e 203c 1006 8ebe c66f d23c 2704 f73b
00000350: d9af f83c 7513 df3b 25a7 cf3b f433 073d
00000360: 304d 3ebc c621 003d 2e58 1e3d 0ec3 d43c
00000370: 22a5 353b 8dce 86be 6b00 87be e66a a33b
00000380: e4de 8abe a2bc c63c 6785 12bb ceae 9c3d
00000390: 05a8 6c3c 0cc5 f13c 9cb1 003b b6db 333c
000003a0: 09c1 ef3b 29d2 8939 9e5d ccbc de6a 1f3d
000003b0: d55f 183d 64eb 633b e6ae 90be e215 133d
000003c0: c265 cd3c 4310 183d 7395 9f3a 9fa6 4b3c
000003d0: 7718 fbbb 6d0c 1abd 5532 643d 89c8 8fbe
000003e0: 5003 753a 064b 583c cfb3 953b 5a70 083d
000003f0: dd82 013d e905 313d 0d2e 583d 8cff 363c

feature_extractor.5.weight f4 [256]
0.8275397 0.91356987 0.9520088 0.85532945 0.8748121 0.80403095 0.81872386 0.8394599
0.87339264 0.85856605 0.85739285 0.83331126 0.79499763 0.99885905 0.8476541 0.9128623
0.8679449 0.9102929 0.99307567 0.99592775 0.90021837 0.84774303 0.82038385 0.8651211
0.8411098 0.8850778 0.7215122 0.81822145 0.86114484 0.8907327 0.88232905 0.8784806
0.86103964 0.77524096 0.897034 0.8171364 0.8335392 0.87195796 0.8353992 0.92000175
0.841914 0.8725027 0.8559349 0.86719084 0.87347037 0.8926406 0.9228137 0.8601231
0.98948175 0.90285677 0.84200966 0.8364162 0.83435273 0.8657691 0.8826033 0.8533689
0.8616686 0.8809862 0.89297724 0.7528608 0.83532643 0.8682288 0.9185119 0.890921
0.91105294 0.80957437 0.85893947 0.99599844 0.8643447 0.8931711 0.8789622 0.8899185
0.99758023 1.0026664 0.854278 0.82966256 0.76896816 0.8552898 0.8364926 0.8452614
0.8760366 0.8362956 0.9993495 0.8482268 0.87125653 0.82337683 0.8513582 1.0070499
0.90915984 0.9977936 0.9336154 0.8654293 0.93015575 0.8454386 0.8695826 0.97642684
0.8989938 0.9963321 0.8945001 0.8945862 0.90813756 0.8401156 0.8393164 0.8380954
0.8763902 0.88429266 0.82662624 0.88218474 0.8403311 0.8378425 0.81467456 0.9487877
0.7794938 0.91266257 0.87901807 0.85662764 0.90109015 0.9756205 0.86542255 0.92714345
0.86483634 0.9028144 0.8468833 0.9996216 0.8209688 0.902679 0.902574 0.7958791
0.8240067 0.85582554 0.8316232 0.87069446 0.87980574 0.84219915 0.84563255 0.9442576
0.9872432 0.86054295 0.77971303 0.86600345 0.8107158 0.8572977 0.8886179 0.8238908
0.8503986 0.83080083 0.81837183 0.8136067 0.86905116 0.99515253 0.87785596 0.8913407
0.79387647 0.8592908 0.8608246 0.7979282 0.8677757 0.82767326 0.965219 0.8586669
0.78750867 0.8030262 0.89571077 0.86034656 0.8502688 0.8530063 0.87056595 0.8236218
0.8461539 0.82570004 0.83356726 0.99931234 0.9410144 0.84213364 0.9933028 0.86354
0.8790196 0.9048889 0.90789056 1.155932 0.8311543 0.8697457 0.8318802 0.907034
0.83264637 0.8384054 0.8879985 0.90882 1.0728669 0.835406 0.82694566 0.8869463
0.85566074 0.837909 0.91583484 0.8973647 0.863314 0.8345401 0.85753536 0.8039939
0.8560598 0.82999367 0.92552125 0.82706654 0.86651057 0.941215 0.81313676 0.87049645
0.892124 0.9975052 0.79873955 0.8652836 0.9128358 0.8844401 0.815114 0.83995
0.9086596 0.8270798 0.8809875 0.93134683 0.8065011 0.9958916 1.005805 0.8818964
0.9979759 0.878858 0.87465376 0.8570706 0.8651165 0.88450056 0.83608925 0.899393
0.8706281 0.8271408 1.0781506 0.82988745 0.82371265 0.9387905 0.9966876 0.73420054
0.8830024 0.91512626 0.84260756 0.8502563 0.7709858 0.9715197 0.93408984 0.9924538
0.8634534 0.8818585 0.91103905 0.83114994 0.88453215 0.82925767 0.9075222 1.0127245
00000000: a4d9 533f b7df 693f d9b6 733f dff6 5a3f
00000010: b0f3 5f3f f9d4 4d3f e397 513f d8e6 563f
00000020: a996 5f3f fcca 5b3f 197e 5b3f e353 553f
00000030: f784 4b3f 3ab5 7f3f dcff 583f 58b1 693f
00000040: a331 5e3f f508 693f 353a 7e3f 1ff5 7e3f
00000050: b674 663f b005 593f ad04 523f 9478 5d3f
00000060: f952 573f 7594 623f 06b5 383f f676 513f
00000070: fd73 5c3f 0f07 643f 51e0 613f 1be4 603f
00000080: 186d 5c3f 3176 463f 05a4 653f da2f 513f
00000090: d362 553f a338 5f3f b9dc 553f 3c85 6b3f
000000a0: ad87 573f 565c 5f3f 8d1e 5b3f 3800 5e3f
000000b0: c19b 5f3f 1884 643f 853d 6c3f 0731 5c3f
000000c0: ad4e 7d3f 9f21 673f f28d 573f 5f1f 563f
000000d0: 2498 553f 0ba3 5d3f 4af2 613f 6276 5a3f
000000e0: 5096 5c3f 5088 613f 289a 643f 7cbb 403f
000000f0: f4d7 553f 3e44 5e3f 9923 6b3f 6613 643f
00000100: c43a 693f 4440 4f3f 75e3 5b3f c1f9 7e3f
00000110: b245 5d3f dca6 643f ab03 613f b3d1 633f
00000120: 6b61 7f3f 5f57 803f f7b1 5a3f c464 543f
00000130: 19db 443f 46f4 5a3f 6124 563f 0d63 583f
00000140: ef43 603f 7817 563f 5ed5 7f3f 6425 593f
00000150: ab0a 5f3f d3c8 523f 9cf2 593f 03e7 803f
00000160: b3be 683f 676f 7f3f 6b01 6f3f c68c 5d3f
00000170: b01e 6e3f aa6e 583f f79c 5e3f 1cf7 793f
00000180: 7524 663f 9f0f 7f3f f5fd 643f 9a03 653f
00000190: b47b 683f d111 573f 71dd 563f 6c8d 563f
000001a0: 1c5b 603f 0161 623f c79d 533f dcd6 613f
000001b0: f01f 573f d97c 563f 838e 503f c0e3 723f
000001c0: e88c 473f 41a4 693f 5407 613f f34b 5b3f
000001d0: d8ad 663f 44c2 793f 558c 5d3f 4659 6d3f
000001e0: ea65 5d3f d81e 673f 58cd 583f 34e7 7f3f
000001f0: 032b 523f f915 673f 170f 673f bcbe 4b3f
00000200: 1af2 523f 6217 5b3f 42e5 543f d5e5 5e3f
00000210: f33a 613f 5d9a 573f 607b 583f deba 713f
00000220: f8bb 7c3f 8b4c 5c3f 469b 473f 67b2 5d3f
00000230: 128b 4f3f dd77 5b3f 767c 633f 82ea 523f
00000240: b9b3 593f 5daf 543f d180 513f 8748 503f
00000250: 237a 5e3f 51c2 7e3f 2bbb 603f e72e 643f
00000260: 7d3b 4b3f 7bfa 5b3f 005f 5c3f 0645 4c3f
00000270: 8c26 5e3f 65e2 533f 9818 773f 98d1 5b3f
00000280: 2b9a 493f 2093 4d3f 4d4d 653f ac3f 5c3f
00000290: 37ab 593f 9f5e 5a3f 69dd 5e3f e1d8 523f
000002a0: 8b9d 583f 1461 533f aa64 553f efd2 7f3f
000002b0: 52e6 703f 1296 573f 1849 7e3f f510 5d3f
000002c0: 6e07 613f cda6 673f 846b 683f 94f5 933f
000002d0: 87c6 543f a7a7 5e3f 1af6 543f 6133 683f
000002e0: 5028 553f bca1 563f df53 633f 6da8 683f
000002f0: b453 893f 2bdd 553f b6b2 533f ea0e 633f
00000300: 950c 5b3f 3481 563f 2774 6a3f b1b9 653f
00000310: 2502 5d3f 6ca4 553f 7087 5b3f 8bd2 4d3f
00000320: bc26 5b3f 777a 543f f6ee 6c3f a2ba 533f
00000330: a3d3 5d3f 77f3 703f bb29 503f dbd8 5e3f
00000340: 3d62 643f 805c 7f3f 327a 4c3f 3a83 5d3f
00000350: 9baf 693f ab6a 623f 50ab 503f f706 573f
00000360: ea9d 683f 80bb 533f 6688 613f bf6c 6e3f
00000370: db76 4e3f c0f2 7e3f 38be 803f f6c3 613f
00000380: 597b 7f3f d6fc 603f 4fe9 5f3f fb68 5b3f
00000390: 4678 5d3f a16e 623f f209 563f 9f3e 663f
000003a0: 7ce1 5e3f 80bf 533f d700 8a3f 8173 543f
000003b0: d5de 523f 9354 703f eb26 7f3f 91f4 3b3f
000003c0: 720c 623f b745 6a3f 21b5 573f 66aa 593f
000003d0: 535f 453f 84b5 783f 8320 6f3f 7411 7e3f
000003e0: 480b 5d3f 7bc1 613f db39 693f 3ec6 543f
000003f0: b370 623f 3b4a 543f 6053 683f f5a0 813f

feature_extractor.5.bias f4 [256]
-0.11490735 -0.08595593 -0.054410122 -0.10484997 -0.10534446 -0.10187484 -0.14724079 -0.13722211
-0.08803134 -0.19299063 -0.055122647 -0.16824512 -0.20367952 8.061693e-05 -0.10250614 -0.070020564
-0.08704895 -0.10471565 -0.008525081 -0.006055441 -0.13669254 -0.1634943 -0.113452405 -0.1445007
-0.11773141 -0.07262847 -0.22974141 -0.15985708 -0.13008158 -0.16264012 -0.12643676 -0.14638509
-0.13045394 -0.20202082 -0.0996545 -0.10437453 -0.11671443 -0.094788544 -0.16076095 -0.045889784
-0.12893069 -0.12057836 -0.07955334 -0.11572861 -0.13244125 -0.12024062 -0.10838906 -0.14579901
-0.009830076 -0.07578844 -0.15769802 -0.12561421 -0.13798575 -0.10442056 -0.123342976 -0.14782041
-0.13769609 -0.12513392 -0.1448176 -0.21280345 -0.1416376 -0.112144016 -0.04805581 -0.08327446
-0.03163438 -0.17379083 -0.13804571 -0.0030027363 -0.09130177 -0.11142379 -0.1514409 -0.05784764
0.00080508564 0.0063029323 -0.15641156 -0.17010355 -0.17483138 -0.14770119 -0.16504891 -0.17498215
-0.14718315 -0.11024148 0.003501627 -0.14091474 -0.17123622 -0.15410332 -0.114266835 0.010313588
-0.06949119 -0.0024972223 -0.11791482 -0.15228912 -0.06306784 -0.1563337 -0.11402999 -0.03505068
-0.09567246 -0.0017949049 -0.07847085 -0.07884301 -0.1054455 -0.14218594 -0.15885742 -0.15178804
-0.08675872 -0.1158356 -0.1845034 -0.10099782 -0.155327 -0.1685152 -0.17115346 -0.12336084
-0.25112832 -0.099691935 -0.13943835 -0.099858016 -0.092998914 -0.09688504 -0.12231819 -0.09444717
-0.12219059 -0.09873589 -0.13629732 -0.0050518014 -0.1100802 -0.048970588 -0.18504724 -0.1198079
-0.16747697 -0.119545236 -0.14648385 -0.15308174 -0.14795095 -0.090872675 -0.13422969 -0.12934205
-0.12286726 -0.11150831 -0.24127258 -0.08787599 -0.13879676 -0.13662276 -0.11616702 -0.1659161
-0.21443833 -0.11900857 -0.19996274 -0.14993522 -0.13360445 -0.0060695964 -0.15825987 -0.09707144
-0.22185759 -0.12526464 -0.06777616 -0.15096793 -0.080950044 -0.12166683 -0.03807967 -0.15318257
-0.21726288 -0.1016207 -0.10027281 -0.10006593 -0.09895315 -0.13810661 -0.11126808 -0.15121295
-0.1060543 -0.13581784 -0.11345966 0.0017929851 -0.12083716 -0.16247548 -0.0063469 -0.13563104
-0.10076567 -0.07769763 -0.11780688 -0.013131455 -0.12723404 -0.13484369 -0.15755247 -0.082911305
-0.15490673 -0.15065189 -0.08646705 -0.053431746 0.043333944 -0.15370122 -0.1444892 -0.0959025
-0.12987053 -0.08624643 -0.07893134 -0.109722726 -0.112964414 -0.18871544 -0.099740826 -0.14769743
-0.14448516 -0.1412928 -0.09311992 -0.17674759 -0.13926704 -0.12646812 -0.17195413 -0.09763855
-0.10853919 -0.00030753086 -0.1392414 -0.1410617 -0.086827256 -0.13010953 -0.22160213 -0.16360278
-0.097325645 -0.1832466 -0.07354826 -0.057131805 -0.14514768 -0.0052204016 0.00020528058 -0.070144705
-0.0018024653 -0.11356142 -0.11017763 -0.087438054 -0.11931989 -0.11537648 -0.14749771 -0.12770769
-0.13957024 -0.17740172 0.02970678 -0.17879301 -0.19774385 -0.058704656 -0.0035065662 -0.18869592
-0.12779549 -0.07899882 -0.14976327 -0.14084654 -0.1439939 -0.074503064 -0.10187232 -0.0077711446
-0.09271063 -0.14056866 -0.109946184 -0.15739842 -0.14332545 -0.16116628 -0.07579731 -0.022508133
00000000: 8b54 ebbd aa09 b0bd 26dd 5ebd 95bb d6bd
00000010: d6be d7bd c2a3 d0bd 4ac6 16be f483 0cbe
00000020: c649 b4bd 569f 45be 49c8 61bd 7348 2cbe
00000030: 5d91 50be e210 a938 bdee d1bd f166 8fbd
00000040: b846 b2bd 2975 d6bd c8ac 0bbc b96c c6bb
00000050: 21f9 0bbe 0d6b 27be bc59 e8bd fef7 13be
00000060: 2a1d f1bd 3cbe 94bd 5541 6bbe 93b1 23be
00000070: 1b34 05be 228b 26be a378 01be f9e5 15be
00000080: b895 05be 8cde 4ebe a917 ccbd 50c2 d5bd
00000090: fa07 efbd 7f20 c2bd 859e 24be edf6 3bbd
000000a0: 6806 04be caf1 f6bd ddec a2bd 1f03 edbd
000000b0: ae9e 07be b740 f6bd 15fb ddbd 564c 15be
000000c0: 540e 21bc f836 9bbd 977b 21be 03a1 00be
000000d0: 234c 0dbe 72da d5bd 3e9b fcbd 3c5e 17be
000000e0: 3400 0dbe 1b23 00be 114b 14be 26e9 59be
000000f0: 7209 11be c3ab e5bd 2bd6 44bd cd8b aabd
00000100: 0d93 01bd 39f6 31be db5b 0dbe 8ec9 44bb
00000110: 6cfc babd 2832 e4bd 5313 1bbe a6f1 6cbd
00000120: 620c 533a d488 ce3b 5a2a 20be a02f 2ebe
00000130: ff06 33be fb3e 17be 9502 29be 852e 33be
00000140: 2eb7 16be 49c6 e1bd 8d7b 653b f44b 10be
00000150: 8c58 2fbe 43cd 1dbe bb04 eabd 53fa 283c
00000160: 6651 8ebd 70a8 23bb 537d f1bd aef1 1bbe
00000170: b629 81bd f115 20be 8e88 e9bd 4d91 0fbd
00000180: ecef c3bd 0443 ebba 53b5 a0bd 7278 a1bd
00000190: cff3 d7bd 3199 11be 85ab 22be 536e 1bbe
000001a0: 8eae b1bd 373b edbd 76ee 3cbe f2d7 cebd
000001b0: 0b0e 1fbe 408f 2cbe da42 2fbe 9ca4 fcbd
000001c0: e493 80be 492b ccbd edc8 0ebe 5c82 ccbd
000001d0: 3776 bebd aa6b c6bd f681 fabd 856d c1bd
000001e0: 0f3f fabd 0b36 cabd 8691 0bbe 9589 a5bb
000001f0: ba71 e1bd 6295 48bd 067d 3dbe d85d f5bd
00000200: 157f 2bbe 22d4 f4bd ddff 15be 76c1 1cbe
00000210: 7480 17be 741b babd 8273 09be 3e72 04be
00000220: d4a1 fbbd 785e e4bd 2910 77be 54f8 b3bd
00000230: bd20 0ebe d6e6 0bbe f9e8 edbd e9e5 29be
00000240: b995 5bbe c4ba f3bd 08c3 4cbe 9e88 19be
00000250: 9bcf 08be 77e3 c6bb e00e 22be 64cd c6bd
00000260: a32e 63be 6045 00be 3ace 8abd 5697 1abe
00000270: 23c9 a5bd 752c f9bd 6ef9 1bbd e4db 1cbe
00000280: 297a 5ebe 831e d0bd d55b cdbd 5eef ccbd
00000290: f3a7 cabd d26b 0dbe 85e0 e3bd 91d7 1abe
000002a0: ff32 d9bd d513 0bbe 8a5d e8bd 9902 eb3a
000002b0: 7979 f7bd f95f 26be a8f9 cfbb dde2 0abe
000002c0: 3b5e cebd ef1f 9fbd bc44 f1bd 5025 57bc
000002d0: a449 02be 7714 0abe 6f55 21be 67cd a9bd
000002e0: df9f 1ebe 7d44 1abe a315 b1bd 3fdb 5abd
000002f0: ef7e 313d da63 1dbe faf4 13be 8868 c4bd
00000300: c8fc 04be f8a1 b0bd c1a6 a1bd 4fb6 e0bd
00000310: e359 e7bd 9f3e 41be eb44 ccbd ff3d 17be
00000320: ebf3 13be 0faf 10be a8b5 bebd 52fd 34be
00000330: 059c 0ebe dc80 01be be14 30be b8f6 c7bd
00000340: cb49 debd 183c a1b9 4c95 0ebe 7a72 10be
00000350: 7dd2 b1bd 6f3b 05be abeb 62be 7d87 27be
00000360: ab52 c7bd ffa4 3bbe 78a0 96bd 0a03 6abd
00000370: 98a1 14be e70f abbb 9640 5739 07a8 8fbd
00000380: b340 ecba e492 e8bd cfa4 e1bd b912 b3bd
00000390: fd5d f4bd 814a ecbd a409 17be cec5 02be
000003a0: 80eb 0ebe cca8 35be a25b f33c 8415 37be
000003b0: 5d7d 4abe 4b74 70bd 6bce 65bb 8139 41be
000003c0: d2dc 02be 22ca a1bd 8b5b 19be 133a 10be
000003d0: 2373 13be 1095 98bd 6fa2 d0bd 16a5 febb
000003e0: 12df bdbd 3bf1 0fbe 772b e1bd 0d2d 21be
000003f0: e8c3 12be c608 25be 9f3b 9bbd fa62 b8bc
