models/lstm_price/model.pt (torch, 945007 bytes, 23 tensors)

input_norm.weight f4 [13]
0.96159667 0.95169187 0.9379651 0.9370474 0.9251871 0.90539736 1.0379893 1.5821301
0.9608238 0.91508967 0.9542527 0.9412286 0.9501601
00000000: 332b 763f 14a2 733f 7b1e 703f 57e2 6f3f
00000010: 10d9 6c3f 1fc8 673f d5dc 843f 3d83 ca3f
00000020: 8cf8 753f 5143 6a3f e849 743f 5cf4 703f
00000030: b13d 733f

input_norm.bias f4 [13]
-0.010711225 -0.021370905 -0.033508003 -0.035722353 -0.046283904 0.02224588 -0.0067027747 -0.021481263
0.015817776 0.059528656 0.02746905 0.0372387 0.027459309
00000000: 227e 2fbc 0912 afbc b03f 09bd 9a51 12bd
00000010: 3194 3dbd fe3c b63c f3a2 dbbb 79f9 afbc
00000020: 4894 813c 52d4 733d c606 e13c 9b87 183d
00000030: 58f2 e03c

lstm.weight_ih_l0 f4 [512, 13]
-0.086624086 0.03592322 -9.6593576e-05 0.03338021 -0.035011705 -0.015499516 0.100165434 0.25969398
0.09715117 0.10787563 0.0011933484 0.009038685 0.12049016 0.030617697 -0.07013773 -0.11219335
0.020814102 -0.09087843 -0.09129621 -0.10054042 0.26531962 -0.048102524 0.0911617 -0.012644519
0.07266723 -0.04689484 0.28007475 0.2940218 0.21732345 0.25135815 0.3851273 0.10142422
0.063054815 -0.29943365 -0.19933788 -0.2301708 -0.27043274 -0.3442041 -0.38625005 0.045470387
-0.002645971 -0.108412206 0.06913547 -0.08729837 -0.011210325 0.056460876 0.2514584 0.00552922
-0.008845954 0.052093484 -0.07221988 -0.022902638 -0.03300136 0.06530037 0.09258334 -0.05150708
-0.087451346 -0.10873461 0.01681276 0.26851076 -0.058112107 0.06446759 0.026500862 -0.006735276
-0.021476155 -0.07822337 -0.1133541 -0.035654344 -0.01383462 -0.08281225 -0.053695917 -0.10317294
0.3022456 -0.027261423 0.07026965 -0.076714404 -0.080225274 -0.022249943 0.019136323 -0.038483936
-0.022137148 0.04559956 0.06234867 -0.07831193 -0.056945644 0.08291337 0.043845482 -0.082330935
0.052718733 0.10034461 0.0013669101 -0.011593961 0.001344579 0.06430325 0.0066048065 0.01704056
0.03588776 -0.10557459 0.33983758 -0.053770754 0.019203812 -0.092695616 0.0444597 -0.04102107
0.08103461 0.06539666 -0.043947287 -0.063646235 -0.029843623 0.06772414 0.010191915 -0.031390492
-0.032081712 -0.0969512 0.10019872 0.020433333 0.03001143 0.29135102 0.23313266 0.16244116
0.17214714 0.15446271 0.14703612 0.1486375 -0.53058183 -0.17391394 -0.3100351 -0.14136416
-0.13300397 -0.23661967 0.08491867 -0.010455622 0.02501865 0.0049220584 0.078268796 -0.11377732
0.00065691624 0.21627605 0.0037234612 -0.029777156 -0.05336766 0.062585235 -0.00078454055 -0.0033315339
0.06709088 -0.0042808987 -0.084486924 -0.0764212 -0.06915477 -0.081307575 0.1944076 -0.030307079
0.025772972 -0.018189639 -0.1025629 0.01043395 0.021304157 -0.065825105 0.11186287 -0.018779656
-0.01571077 0.0036959655 -0.019707687 0.22039202 -0.0643192 -0.08395237 -0.090213135 -0.08527724
-0.10829778 -0.06866117 0.06567396 0.006615217 0.09118736 -0.0013593499 -0.042605646 -0.067820005
0.2221636 -0.026792247 -0.07118124 -0.10120218 -0.07724398 -0.10026374 -0.06956246 0.012362232
-0.02336846 -0.10875837 0.0945228 -0.09163605 -0.001901457 0.17245592 0.052753463 -0.023150198
-0.017379103 0.09825489 0.01837297 0.01594217 0.065496586 0.05906393 -0.0965951 0.06552765
-0.034230813 -0.06726869 0.13598573 0.09303837 -0.03170295 0.0853606 -0.014916188 -0.07095787
-0.035387967 -0.049946588 -0.14775911 -0.009184417 -0.029059915 -0.04530167 0.10595646 0.08740732
0.028257903 0.07819944 -0.036915664 0.053730834 0.05092227 -0.06156262 -0.022429619 -0.01954554
0.01067044 0.019000027 -0.060558617 0.017758824 0.26365593 0.12539539 -0.05260576 -0.06741574
0.028462138 0.03192797 0.0030510752 -0.04504467 0.08606241 -0.07258344 0.0021057148 -0.07909078
-0.09245543 0.1704595 0.06607021 0.05243654 -0.102650285 -0.08328704 -0.05587067 -0.029329795
-0.0072602597 0.05586396 0.0154311685 -0.06312697 0.009726013 0.0631352 -0.18472923 0.035486497
00000000: f867 b1bd 3a24 133d 4892 cab8 b0b9 083d
00000010: 6f68 0fbd aff1 7dbc 8923 cd3d 9cf6 843e
00000020: 31f7 c63d e6ed dc3d 216a 9c3a fe16 143c
00000030: 8cc3 f63d f7d1 fa3c 5fa4 8fbd a1c5 e5bd
00000040: 5682 aa3c 781e babd 82f9 babd 23e8 cdbd
00000050: f9d7 873e 2707 45bd fcb2 ba3d f52a 4fbc
00000060: 8fd2 943d ce14 40bd f565 8f3e 068a 963e
00000070: 0a8a 5e3e 04b2 803e 682f c53e 80b7 cf3d
00000080: e222 813d 5e4f 99be 3b1f 4cbe e5b1 6bbe
00000090: 2976 8abe 853b b0be 91c2 c5be 283f 3a3d
000000a0: 0768 2dbb 3807 debd e696 8d3d 7dc9 b2bd
000000b0: 83ab 37bc 8543 673d 28bf 803e 762e b53b
000000c0: 9fee 10bc fa5f 553d 04e8 93bd 509e bbbc
000000d0: 6f2c 07bd 33bc 853d 569c bd3d 17f9 52bd
000000e0: b119 b3bd 40b0 debd eaba 893c 3e7a 893e
000000f0: f606 6ebd 9507 843d 5618 d93c 97b3 dcbb
00000100: c3ee afbc 9333 a0bd 3226 e8bd 4a0a 12bd
00000110: 9aaa 62bc 7899 a9bd 40f0 5bbd 564c d3bd
00000120: efbf 9a3e 5953 dfbc 89e9 8f3d 711c 9dbd
00000130: 264d a4bd 8345 b6bc c7c3 9c3c 55a1 1dbd
00000140: f758 b5bc 9bc6 3a3d 5261 7f3d 0162 a0bd
00000150: d63f 69bd 7cce a93d 5297 333d 1f9d a8bd
00000160: 99ef 573d 7a81 cd3d e429 b33a 99f4 3dbc
00000170: 963c b03a 6cb1 833d 226d d83b a598 8b3c
00000180: 0bff 123d 7e37 d8bd 31ff ad3e b93e 5cbd
00000190: 5051 9d3c 33d7 bdbd 601b 363d b605 28bd
000001a0: 79f5 a53d afee 853d 1202 34bd f558 82bd
000001b0: 9d7a f4bc f4b2 8a3d fdfb 263c 5193 00bd
000001c0: 1d68 03bd 5a8e c6bd fd34 cd3d ce63 a73c
000001d0: 88da f53c f62b 953e 54ba 6e3e fa56 263e
000001e0: 5747 303e 792b 1e3e a390 163e 6e34 183e
000001f0: 36d4 07bf 7f16 32be ecbc 9ebe c4c1 10be
00000200: 3132 08be 6d4c 72be d7e9 ad3d 0f4e 2bbc
00000210: e9f3 cc3c 3849 a13b 644b a03d 1504 e9bd
00000220: e734 2c3a 7877 5d3e 5005 743b 39ef f3bc
00000230: 0c98 5abd b02c 803d a0a9 4dba dd55 5abb
00000240: f166 893d c846 8cbb 7b07 adbd b882 9cbd
00000250: 04a1 8dbd 9684 a6bd c912 473e 8d46 f8bc
00000260: d721 d33c 7002 95bc 7f0c d2bd 29f3 2a3c
00000270: 0e86 ae3c 50cf 86bd 5c18 e53d cbd7 99bc
00000280: dfb3 80bc 0338 723b 0472 a1bc 72ae 613e
00000290: c9b9 83bd 38ef abbd aac1 b8bd d5a5 aebd
000002a0: 3acb ddbd 3a9e 8cbd 1280 863d 76c4 d83b
000002b0: 70c0 ba3d 372c b2ba 4283 2ebd 37e5 8abd
000002c0: db7e 633e 6a7b dbbc 78c7 91bd 1743 cfbd
000002d0: 1732 9ebd 1357 cdbd c376 8ebd f68a 4a3c
000002e0: 366f bfbc b5bc debd 2b95 c13d aeab bbbd
000002f0: 4f3a f9ba 4998 303e 0414 583d 7ca5 bdbc
00000300: 9f5e 8ebc dc39 c93d e982 963c 2799 823c
00000310: 1323 863d 05ed 713d a7d3 c5bd 5c33 863d
00000320: 9c35 0cbd 2bc4 89bd d83f 0b3e e78a be3d
00000330: f4da 01bd 8ad1 ae3d 0763 74bc 5c52 91bd
00000340: f9f2 10bd cb94 4cbd 2a4e 17be 3d7a 16bc
00000350: 0f0f eebc 3e8e 39bd b3ff d83d 9c02 b33d
00000360: 1e7d e73c 0727 a03d e134 17bd dd14 5c3d
00000370: df93 503d 1629 7cbd 52be b7bc f81d a0bc
00000380: 12d3 2e3c f2a5 9b3c 500c 78bd f47a 913c
00000390: e9fd 863e a667 003e 2379 57bd 4311 8abd
000003a0: 6e29 e93c e7c6 023d 8cf4 473b c380 38bd
000003b0: 7d41 b03d a0a6 94bd 0800 0a3b 59fa a1bd
000003c0: 4659 bdbd ef8c 2e3e d14f 873d b3c7 563d
000003d0: 503a d2bd 6592 aabd a5d8 64bd 0a45 f0bc
000003e0: 79e7 edbb 9cd1 643d 03d3 7c3c b648 81bd
000003f0: db59 1f3c 074d 813d a929 3dbe 4a5a 113d

lstm.weight_hh_l0 f4 [512, 128]
0.015071369 -0.014519412 0.007408588 0.025599021 -0.013075044 0.034382135 0.015608214 0.042672027
0.035432633 0.027133932 -0.012692297 0.12602213 0.0018791569 -0.016574275 0.04181004 0.015256544
0.018218696 0.0776908 -0.09854391 -0.037144784 0.039073683 -0.024038684 -0.1182035 -0.00048837386
0.07698205 -0.07447036 0.015023125 0.011673397 0.10515757 -0.0049952334 -0.12530632 -0.048700463
-0.010674028 -0.012190341 -0.07168799 -0.013991015 -0.09553346 -0.01395673 -0.014020613 -0.021236792
-0.027109133 0.0739096 -0.019588131 -0.04898992 -0.08612202 -0.017872645 -0.027656917 -0.012620167
-0.037602443 0.016494868 0.083250046 0.14973556 -0.006479792 0.09247987 0.011097796 0.042046506
0.052835178 0.0008345315 -0.0651775 0.013716499 0.05242848 -0.021583352 0.0068733008 -0.010653746
0.0044908393 0.07069177 -0.023072315 0.06915877 -0.010656812 0.07927578 -0.04008735 0.076713815
-0.137399 -0.004489141 -0.04023431 0.06179502 -0.03628144 0.0053183055 0.032031197 0.011739758
0.06839373 -0.10226308 -0.021938602 -0.017062532 0.04409508 -0.0133910775 -0.021375636 -0.024164507
-0.055056725 -0.078013204 0.035973616 -0.005322994 -0.023774846 0.005231396 -0.017195985 -0.030417312
-0.019238308 0.0006020892 0.020273915 -0.06836522 -0.033184085 -0.011254707 0.01919307 -0.041673806
-0.013429573 -0.02673508 -0.08016775 -0.057454564 -0.059710383 -0.0117828185 -0.08202204 0.07162933
-0.001598712 0.043859717 -0.014168782 0.06647245 0.04857858 -0.119458795 0.03214284 -0.0029091046
0.0001866515 -0.051263433 0.10653143 0.00831894 0.032820847 -0.047505744 -0.04962762 -0.07934288
0.005095795 -0.011100324 0.01769051 0.048654396 0.01750727 0.05924969 -0.091757625 -0.036661763
0.031250652 0.124642834 -0.15244766 -0.06724643 0.07076944 -0.033028394 0.029625198 -0.025788734
0.055979546 0.03223087 0.0307299 -0.12336912 0.004831783 0.034335855 -0.053347442 0.08194873
-0.067539155 0.14334768 -0.012040924 0.010808088 0.17664756 0.085811414 -0.20537783 -0.10471636
0.013022902 -0.011072604 -0.06320798 -0.08703031 -0.053899147 -0.051177297 -0.040482294 -0.065885834
0.092401095 0.06246567 -0.10606096 0.023000328 0.12329267 0.032763638 0.010753659 0.0023546391
0.0040932954 0.06930435 0.06783734 -0.017664194 0.039142787 0.05772147 -0.107914306 0.088436276
0.18007047 0.11433334 -0.0101136165 -0.021789392 0.12829989 0.055926118 -0.005020107 0.046024177
-0.002046391 -0.033969007 -0.07407784 -0.050039127 0.15840083 0.061748683 -0.10954077 -0.012329562
0.05918778 0.037076987 -0.010827407 0.028666077 0.020745995 0.023419103 0.015444453 -0.07635264
0.016352158 -0.08001353 0.057878092 -0.014998975 -0.1569303 0.07360829 -0.035918746 0.012972716
0.040099103 -0.04462581 -0.029291702 -0.09212286 -0.09420482 -0.017151142 -0.082876004 -0.055426814
-0.073465385 0.090297654 -0.10305157 -0.055138595 0.024918675 -0.009515778 0.03827824 -0.05270343
-0.050682027 -0.18256429 -0.06848442 0.00026650267 -0.060450014 -0.008991284 -0.1200485 -0.021629974
0.06377312 0.14484589 0.04794971 -0.031523913 0.02887326 -0.12875843 -0.037702966 -0.076120146
0.04062427 0.0858614 0.0304444 -0.1356278 0.059406903 -0.08577453 -0.111730605 -0.07858807
00000000: e7ed 763c d4e2 6dbc bec3 f23b 0ab5 d13c
00000010: b638 56bc 48d4 0c3d 98b9 7f3c ddc8 2e3d
00000020: cf21 113d fb47 de3c 5af3 4fbc f20b 013e
00000030: 0b4e f63a c6c6 87bc 0141 2b3d 95f6 793c
00000040: 603f 953c 5b1c 9f3d 64d1 c9bd 2125 18bd
00000050: ba0b 203d c6ec c4bc ad14 f2bd 3706 00ba
00000060: c4a8 9d3d eb83 98bd 8e23 763c c741 3f3c
00000070: da5c d73d 0eaf a3bb 4d50 00be 237a 47bd
00000080: 1ee2 2ebc ffb9 47bc 27d1 92bd 923a 65bc
00000090: 0ca7 c3bd c5aa 64bc b7b6 65bc c8f8 adbc
000000a0: f913 debc eb5d 973d 4a77 a0bc a8a9 48bd
000000b0: be60 b0bd a769 92bc c290 e2bc d1c4 4ebc
000000c0: 0505 1abd 3f20 873c 007f aa3d 4754 193e
000000d0: 6f54 d4bb 1666 bd3d 88d3 353c f538 2c3d
000000e0: b369 583d 76c4 5a3a c87b 85bd 2bbb 603c
000000f0: 3fbf 563d 92cf b0bc 6d39 e13b 0d8d 2ebc
00000100: e427 933b d9c6 903d 2702 bdbc 1da3 8d3d
00000110: e999 2ebc 575b a23d a232 24bd 221c 9d3d
00000120: 53b2 0cbe a519 93bb bbcc 24bd c61c 7d3d
00000130: d99b 14bd 2e45 ae3b 2533 033d 1d58 403c
00000140: 0312 8c3d 4e6f d1bd 95b8 b3bc b9c6 8bbc
00000150: 0b9d 343d 4066 5bbc f51b afbc a5f4 c5bc
00000160: 2983 61bd 63c5 9fbd 1259 133d 836c aebb
00000170: 77c3 c2bc 216c ab3b 98de 8cbc ba2d f9bc
00000180: a899 9dbc 86d5 1d3a 7b15 a63c 1103 8cbd
00000190: 09ec 07bd aa65 38bc c93a 9d3c 27b2 2abd
000001a0: b607 5cbc 8703 dbbc fd2e a4bd 7a55 6bbd
000001b0: e092 74bd b90c 41bc 2cfb a7bd 66b2 923d
000001c0: e08b d1ba 3fa6 333d 2e24 68bc b522 883d
000001d0: 55fa 463d d0a6 f4bd 36a8 033d ada6 3ebb
000001e0: e1b7 4339 9bf9 51bd 262d da3d 2a4c 083c
000001f0: 276f 063d 6295 42bd 5546 4bbd 857e a2bd
00000200: a0fa a63b 22de 35bc b0eb 903c d549 473d
00000210: 686b 8f3c ceaf 723d 6ceb bbbd a52a 16bd
00000220: af00 003d be44 ff3d 3d1b 1cbe 7fb8 89bd
00000230: 91ef 903d c848 07bd 8bb0 f23c e542 d3bc
00000240: cf4a 653d 8404 043d 45bd fb3c f3a8 fcbd
00000250: ef53 9e3b c1a3 0c3d d982 5abd bcd4 a73d
00000260: f851 8abd bcc9 123e 4c47 45bc 6814 313c
00000270: 19e3 343e e5bd af3d 914e 52be 8875 d6bd
00000280: 035e 553c de69 35bc 2f73 81bd f23c b2bd
00000290: 5ac5 5cbd 499f 51bd c3d0 25bd 27ef 86bd
000002a0: c93c bd3d 01dc 7f3d 7d36 d9bd 2f6b bc3c
000002b0: de80 fc3d 2a33 063d 1d30 303c 4a50 1a3b
000002c0: 0d21 863b 70ef 8d3d 4eee 8a3d 80b4 90bc
000002d0: 3054 203d 596d 6c3d 2d02 ddbd 141e b53d
000002e0: 6564 383e 9927 ea3d 95b3 25bc ab7f b2bc
000002f0: 0c61 033e c912 653d b67f a4bb d983 3c3d
00000300: be1c 06bb 1623 0bbd 1fb6 97bd d4f5 4cbd
00000310: d433 223e 30ec 7c3d e956 e0bd ee01 4abc
00000320: e36e 723d 0ade 173d 7065 31bc 1fd5 ea3c
00000330: 81f3 a93c 6bd9 bf3c bb0a 7d3c c65e 9cbd
00000340: f6f4 853c 22de a3bd 9411 6d3d 43be 75bc
00000350: 56b2 20be f1bf 963d 891f 13bd 848b 543c
00000360: f53e 243d 8ec9 36bd 27f5 efbc e9aa bcbd
00000370: 75ee c0bd 8d80 8cbc e5ba a9bd 3a07 63bd
00000380: 0575 96bd faed b83d b40c d3bd 02d9 61bd
00000390: 4022 cc3c 11e8 1bbc a5c9 1c3d 8ddf 57bd
000003a0: f597 4fbd 22f2 3abe 8f41 8cbd 62b9 8b39
000003b0: 6f9a 77bd 2e50 13bc fddb f5bd 5831 b1bc
000003c0: 7b9b 823d 7b52 143e ea66 443d 381f 01bd
000003d0: 9d87 ec3c 40d9 03be 6d6e 1abd e1e4 9bbd
000003e0: a265 263d 1ad8 af3d 8966 f93c 04e2 0abe
000003f0: a754 733d 8faa afbd 04d3 e4bd c8f2 a0bd

lstm.bias_ih_l0 f4 [512]
-0.037039395 -0.033807606 0.2920754 -0.020043576 0.009266148 -0.01755715 -0.005465231 0.016003314
-0.0145102935 0.23669466 0.030718267 -0.00013903936 0.025532646 -0.0019841765 -0.004019903 -0.005368763
-0.06401085 -0.015745651 0.008627481 0.0029078128 -0.02091015 -0.0055519184 0.0047561815 -0.006497823
-0.002575807 0.0179161 -0.034544513 -0.004279034 0.22304781 0.0017088649 0.13768631 -0.015305274
-0.01606022 0.002664945 -0.034294788 0.06599398 -0.012775202 -0.05470171 -0.02682742 -0.016311584
-0.026852358 -0.039742853 -0.008143963 -0.025521433 0.013186767 0.0024476564 0.06685728 -0.013635116
-0.024593716 -0.02182921 -0.024050225 0.012720245 0.14014088 -0.0067144167 0.00046739992 -0.0043885293
0.22390452 -0.03535943 -0.02041214 -0.032877326 0.22192724 -0.028869772 0.011248946 -0.021900041
-0.0313495 -0.0048250374 -0.06772891 -0.02473427 0.03495571 -0.004462671 0.08533764 -0.03644771
0.009017388 -0.024046889 -0.029455926 -0.0034383482 -0.024833083 0.0044135544 -0.027824339 0.014721694
-0.028729692 -0.015417408 -0.016727054 -0.01670755 -0.014543074 0.04400237 -0.0010168083 0.19334693
0.0065210513 -0.027975027 -0.011380537 0.21825828 -0.025165135 -0.01114137 0.056138575 -0.034860615
-0.022305015 -0.013715425 0.026311314 0.109389186 -0.0008700013 -0.05553641 0.025206106 -0.019511443
-0.045133192 0.045090146 -0.006076562 -0.031141704 -0.0064153913 -0.05424905 0.006946471 -0.0032195463
-0.005222886 0.11405351 -0.030967453 -0.0074126204 -0.03173629 -0.00839026 0.0030261676 -0.02703943
-0.06964446 -0.038331658 0.010232833 -0.0038981743 -0.011847299 -0.020006789 0.120734185 -0.011356535
0.015780194 0.007207267 0.21533012 0.01037212 0.024197876 0.020148968 0.02414659 -0.0035921137
0.03328482 0.21253426 0.015660025 0.024842113 0.01631019 0.021878347 0.03154215 0.03503568
0.0041178814 0.020119159 0.031346142 0.07891114 0.0071109673 0.025515253 -0.0021931008 0.012924496
0.030939173 0.10292292 0.036721077 0.01649932 0.13526578 0.044039607 0.06366221 0.015979383
0.018510023 0.037135534 -0.0119927395 0.08912819 0.009531572 -0.006465099 0.020626685 0.009314554
-0.032472517 0.047281403 0.030834205 -0.032047115 0.006885154 0.03207637 0.0161648 0.014175598
0.06001112 0.06584031 0.013893629 0.01057574 0.063098036 0.016963633 0.054443546 -0.013045215
0.13614477 -0.032593247 0.016441705 0.00693586 0.1768995 0.0030936843 -0.0009968068 0.012874412
0.02236098 0.027398067 -0.03318683 0.0053109345 0.11359974 0.033788614 0.0832011 0.026670778
-0.0055510504 0.02030167 0.030935066 0.04949444 -0.006715373 0.03588815 0.004192574 0.0075001707
0.010655557 0.03136 0.011266367 0.032184705 0.062086135 0.059337433 0.009872189 0.13450733
0.07765433 0.011344907 0.022769269 0.10870158 0.013139327 0.01393611 0.09040916 0.032894175
-0.005488519 0.024342462 0.016253894 0.11134139 0.036960635 -0.007579579 -0.00330654 0.034091923
0.009331658 0.103924304 0.028829644 0.029061427 0.013313683 0.00012753188 0.024769139 0.010379611
0.00469903 0.00940843 0.011609751 0.044903345 0.006356557 0.005377005 0.030607803 -0.003382105
-0.012749269 0.013484176 0.04006352 0.007887725 -0.013691668 0.018049208 0.01613065 0.033184297
00000000: 9fb6 17bd d879 0abd e88a 953e 6d32 a4bc
00000010: 0bd1 173c 03d4 8fbc ae15 b3bb 6219 833c
00000020: 95bc 6dbc 1660 723e e0a4 fb3c 18cb 11b9
00000030: d729 d13c f508 02bb 64b9 83bb 73ec afbb
00000040: 1f18 83bd 06fd 80bc 475a 0d3c 0191 3e3b
00000050: c34b abbc deec b5bb bed9 9b3b b1eb d4bb
00000060: dfce 28bb c9c4 923c 8c7e 0dbd 2437 8cbb
00000070: a566 643e fefb df3a a4fd 0c3e f9c2 7abc
00000080: b990 83bc 5ca6 2e3b b178 0cbd da27 873d
00000090: 154f 51bc e60e 60bd 2dc5 dbbc df9f 85bc
000000a0: 7af9 dbbc 67c9 22bd 426e 05bc 5312 d1bc
000000b0: 4f0d 583c dc68 203b 78ec 883d d265 5fbc
000000c0: c378 c9bc 2cd3 b2bc fa04 c5bc 9368 503c
000000d0: 1781 0f3e 9c04 dcbb 5b0d f539 a7cd 8fbb
000000e0: 3a47 653e 0dd5 10bd 5c37 a7bc 60aa 06bd
000000f0: e540 633e 4d80 ecbc 804d 383c b767 b3bc
00000100: 5568 00bd 591b 9ebb 74b5 8abd 869f cabc
00000110: b82d 0f3d 993b 92bb 80c5 ae3d 324a 15bd
00000120: abbd 133c fbfd c4bc 8e4d f1bc e955 61bb
00000130: c06e cbbc 949f 903b deef e3bc 4333 713c
00000140: 885a ebbc 4c99 7cbc 2d07 89bc 46de 88bc
00000150: 1346 6ebc d43b 343d 6d46 85ba bdfc 453e
00000160: 8bae d53b e22b e5bc 6f75 3abc 197f 5f3e
00000170: 1d27 cebc 4b8a 36bc 90f1 653d 01ca 0ebd
00000180: 02b9 b6bc a9b6 60bc d38a d73c 7007 e03d
00000190: cd10 64ba 267a 63bd 097d ce3c 76d6 9fbc
000001a0: 95dd 38bd 72b0 383d e61d c7bb e31c ffbc
000001b0: 3438 d2bb 4034 5ebd 399f e33b 06ff 52bb
000001c0: be24 abbb e394 e93d 75af fdbc 91e5 f2bb
000001d0: e9fd 01bd 4d77 09bc ab52 463b cb81 ddbc
000001e0: c1a1 8ebd a801 1dbd 9da7 273c 8378 7fbb
000001f0: 2c1b 42bc 47e5 a3bc 7c43 f73d c310 3abc
00000200: 7745 813c f02a ec3b 807f 5c3e d3ef 293c
00000210: a03a c63c 730f a53c 12cf c53c ab69 6bbb
00000220: aa55 083d 95a2 593e 7449 803c b081 cb3c
00000230: f39c 853c 383a b33c 5732 013d 9381 0f3d
00000240: 4bef 863b efd0 a43c d064 003d 2a9c a13d
00000250: 1e03 e93b 5d05 d13c 20ba 0fbb 44c1 533c
00000260: 2674 fd3c 40c9 d23d d768 163d 9529 873c
00000270: 1d83 0a3e e062 343d 5561 823d 32e7 823c
00000280: 55a2 973c 6e1b 183d 327d 44bc d788 b63d
00000290: 502a 1c3c 2ed9 d3bb 4bf9 a83c 129c 183c
000002a0: e701 05bd 25aa 413d 0498 fc3c d643 03bd
000002b0: dc9c e13b 8362 033d 0b6c 843c c440 683c
000002c0: 38ce 753d 49d7 863d 1ba2 633c de45 2d3c
000002d0: 8b39 813d 51f7 8a3c 3200 5f3d 99bb 55bc
000002e0: 8969 0b3e 7f80 05bd c1b0 863c 3646 e33b
000002f0: 2425 353e 69bf 4a3b 49a7 82ba 33ef 523c
00000300: 602e b73c e971 e03c eaee 07bd 5907 ae3b
00000310: fba6 e83d ee65 0a3d 5765 aa3d ad7c da3c
00000320: 96e5 b5bb b04f a63c 896b fd3c afba 4a3d
00000330: a20c dcbb 74ff 123d dc61 893b fec3 f53b
00000340: a594 2e3c 5873 003d 9196 383c 1cd4 033d
00000350: 084e 7e3d cf0b 733d f6be 213c 4abc 093e
00000360: 3c09 9f3d fddf 393c 9e86 ba3c ef9e de3d
00000370: 5546 573c 4854 643c 7028 b93d 0bbc 063d
00000380: 09d9 b3bb d869 c73c e326 853c f406 e43d
00000390: 0964 173d 1e5e f8bb 89b2 58bb f9a3 0b3d
000003a0: cfe3 183c 44d6 d43d 252c ec3c 3b12 ee3c
000003b0: a221 5a3c 14ba 0539 a6e8 ca3c 3e0f 2a3c
000003c0: 52fa 993b d125 1a3c d336 3e3c 92ec 373d
000003d0: aa4a d03b 9631 b03b 37bd fa3c 4ea6 5dbb
000003e0: 4fe2 50bc bcec 5c3c a519 243d 843b 013c
000003f0: 0553 60bc efdb 933c 6d24 843c 42ec 073d

lstm.bias_hh_l0 f4 [512]
-0.037039395 -0.033807606 0.2920754 -0.020043576 0.009266148 -0.01755715 -0.005465231 0.016003314
-0.0145102935 0.23669466 0.030718267 -0.00013903936 0.025532646 -0.0019841765 -0.004019903 -0.005368763
-0.06401085 -0.015745651 0.008627481 0.0029078128 -0.02091015 -0.0055519184 0.0047561815 -0.006497823
-0.002575807 0.0179161 -0.034544513 -0.004279034 0.22304781 0.0017088649 0.13768631 -0.015305274
-0.01606022 0.002664945 -0.034294788 0.06599398 -0.012775202 -0.05470171 -0.02682742 -0.016311584
-0.026852358 -0.039742853 -0.008143963 -0.025521433 0.013186767 0.0024476564 0.06685728 -0.013635116
-0.024593716 -0.02182921 -0.024050225 0.012720245 0.14014088 -0.0067144167 0.00046739992 -0.0043885293
0.22390452 -0.03535943 -0.02041214 -0.032877326 0.22192724 -0.028869772 0.011248946 -0.021900041
-0.0313495 -0.0048250374 -0.06772891 -0.02473427 0.03495571 -0.004462671 0.08533764 -0.03644771
0.009017388 -0.024046889 -0.029455926 -0.0034383482 -0.024833083 0.0044135544 -0.027824339 0.014721694
-0.028729692 -0.015417408 -0.016727054 -0.01670755 -0.014543074 0.04400237 -0.0010168083 0.19334693
0.0065210513 -0.027975027 -0.011380537 0.21825828 -0.025165135 -0.01114137 0.056138575 -0.034860615
-0.022305015 -0.013715425 0.026311314 0.109389186 -0.0008700013 -0.05553641 0.025206106 -0.019511443
-0.045133192 0.045090146 -0.006076562 -0.031141704 -0.0064153913 -0.05424905 0.006946471 -0.0032195463
-0.005222886 0.11405351 -0.030967453 -0.0074126204 -0.03173629 -0.00839026 0.0030261676 -0.02703943
-0.06964446 -0.038331658 0.010232833 -0.0038981743 -0.011847299 -0.020006789 0.120734185 -0.011356535
0.015780194 0.007207267 0.21533012 0.01037212 0.024197876 0.020148968 0.02414659 -0.0035921137
0.03328482 0.21253426 0.015660025 0.024842113 0.01631019 0.021878347 0.03154215 0.03503568
0.0041178814 0.020119159 0.031346142 0.07891114 0.0071109673 0.025515253 -0.0021931008 0.012924496
0.030939173 0.10292292 0.036721077 0.01649932 0.13526578 0.044039607 0.06366221 0.015979383
0.018510023 0.037135534 -0.0119927395 0.08912819 0.009531572 -0.006465099 0.020626685 0.009314554
-0.032472517 0.047281403 0.030834205 -0.032047115 0.006885154 0.03207637 0.0161648 0.014175598
0.06001112 0.06584031 0.013893629 0.01057574 0.063098036 0.016963633 0.054443546 -0.013045215
0.13614477 -0.032593247 0.016441705 0.00693586 0.1768995 0.0030936843 -0.0009968068 0.012874412
0.02236098 0.027398067 -0.03318683 0.0053109345 0.11359974 0.033788614 0.0832011 0.026670778
-0.0055510504 0.02030167 0.030935066 0.04949444 -0.006715373 0.03588815 0.004192574 0.0075001707
0.010655557 0.03136 0.011266367 0.032184705 0.062086135 0.059337433 0.009872189 0.13450733
0.07765433 0.011344907 0.022769269 0.10870158 0.013139327 0.01393611 0.09040916 0.032894175
-0.005488519 0.024342462 0.016253894 0.11134139 0.036960635 -0.007579579 -0.00330654 0.034091923
0.009331658 0.103924304 0.028829644 0.029061427 0.013313683 0.00012753188 0.024769139 0.010379611
0.00469903 0.00940843 0.011609751 0.044903345 0.006356557 0.005377005 0.030607803 -0.003382105
-0.012749269 0.013484176 0.04006352 0.007887725 -0.013691668 0.018049208 0.01613065 0.033184297
00000000: 9fb6 17bd d879 0abd e88a 953e 6d32 a4bc
00000010: 0bd1 173c 03d4 8fbc ae15 b3bb 6219 833c
00000020: 95bc 6dbc 1660 723e e0a4 fb3c 18cb 11b9
00000030: d729 d13c f508 02bb 64b9 83bb 73ec afbb
00000040: 1f18 83bd 06fd 80bc 475a 0d3c 0191 3e3b
00000050: c34b abbc deec b5bb bed9 9b3b b1eb d4bb
00000060: dfce 28bb c9c4 923c 8c7e 0dbd 2437 8cbb
00000070: a566 643e fefb df3a a4fd 0c3e f9c2 7abc
00000080: b990 83bc 5ca6 2e3b b178 0cbd da27 873d
00000090: 154f 51bc e60e 60bd 2dc5 dbbc df9f 85bc
000000a0: 7af9 dbbc 67c9 22bd 426e 05bc 5312 d1bc
000000b0: 4f0d 583c dc68 203b 78ec 883d d265 5fbc
000000c0: c378 c9bc 2cd3 b2bc fa04 c5bc 9368 503c
000000d0: 1781 0f3e 9c04 dcbb 5b0d f539 a7cd 8fbb
000000e0: 3a47 653e 0dd5 10bd 5c37 a7bc 60aa 06bd
000000f0: e540 633e 4d80 ecbc 804d 383c b767 b3bc
00000100: 5568 00bd 591b 9ebb 74b5 8abd 869f cabc
00000110: b82d 0f3d 993b 92bb 80c5 ae3d 324a 15bd
00000120: abbd 133c fbfd c4bc 8e4d f1bc e955 61bb
00000130: c06e cbbc 949f 903b deef e3bc 4333 713c
00000140: 885a ebbc 4c99 7cbc 2d07 89bc 46de 88bc
00000150: 1346 6ebc d43b 343d 6d46 85ba bdfc 453e
00000160: 8bae d53b e22b e5bc 6f75 3abc 197f 5f3e
00000170: 1d27 cebc 4b8a 36bc 90f1 653d 01ca 0ebd
00000180: 02b9 b6bc a9b6 60bc d38a d73c 7007 e03d
00000190: cd10 64ba 267a 63bd 097d ce3c 76d6 9fbc
000001a0: 95dd 38bd 72b0 383d e61d c7bb e31c ffbc
000001b0: 3438 d2bb 4034 5ebd 399f e33b 06ff 52bb
000001c0: be24 abbb e394 e93d 75af fdbc 91e5 f2bb
000001d0: e9fd 01bd 4d77 09bc ab52 463b cb81 ddbc
000001e0: c1a1 8ebd a801 1dbd 9da7 273c 8378 7fbb
000001f0: 2c1b 42bc 47e5 a3bc 7c43 f73d c310 3abc
00000200: 7745 813c f02a ec3b 807f 5c3e d3ef 293c
00000210: a03a c63c 730f a53c 12cf c53c ab69 6bbb
00000220: aa55 083d 95a2 593e 7449 803c b081 cb3c
00000230: f39c 853c 383a b33c 5732 013d 9381 0f3d
00000240: 4bef 863b efd0 a43c d064 003d 2a9c a13d
00000250: 1e03 e93b 5d05 d13c 20ba 0fbb 44c1 533c
00000260: 2674 fd3c 40c9 d23d d768 163d 9529 873c
00000270: 1d83 0a3e e062 343d 5561 823d 32e7 823c
00000280: 55a2 973c 6e1b 183d 327d 44bc d788 b63d
00000290: 502a 1c3c 2ed9 d3bb 4bf9 a83c 129c 183c
000002a0: e701 05bd 25aa 413d 0498 fc3c d643 03bd
000002b0: dc9c e13b 8362 033d 0b6c 843c c440 683c
000002c0: 38ce 753d 49d7 863d 1ba2 633c de45 2d3c
000002d0: 8b39 813d 51f7 8a3c 3200 5f3d 99bb 55bc
000002e0: 8969 0b3e 7f80 05bd c1b0 863c 3646 e33b
000002f0: 2425 353e 69bf 4a3b 49a7 82ba 33ef 523c
00000300: 602e b73c e971 e03c eaee 07bd 5907 ae3b
00000310: fba6 e83d ee65 0a3d 5765 aa3d ad7c da3c
00000320: 96e5 b5bb b04f a63c 896b fd3c afba 4a3d
00000330: a20c dcbb 74ff 123d dc61 893b fec3 f53b
00000340: a594 2e3c 5873 003d 9196 383c 1cd4 033d
00000350: 084e 7e3d cf0b 733d f6be 213c 4abc 093e
00000360: 3c09 9f3d fddf 393c 9e86 ba3c ef9e de3d
00000370: 5546 573c 4854 643c 7028 b93d 0bbc 063d
00000380: 09d9 b3bb d869 c73c e326 853c f406 e43d
00000390: 0964 173d 1e5e f8bb 89b2 58bb f9a3 0b3d
000003a0: cfe3 183c 44d6 d43d 252c ec3c 3b12 ee3c
000003b0: a221 5a3c 14ba 0539 a6e8 ca3c 3e0f 2a3c
000003c0: 52fa 993b d125 1a3c d336 3e3c 92ec 373d
000003d0: aa4a d03b 9631 b03b 37bd fa3c 4ea6 5dbb
000003e0: 4fe2 50bc bcec 5c3c a519 243d 843b 013c
000003f0: 0553 60bc efdb 933c 6d24 843c 42ec 073d

lstm.weight_ih_l1 f4 [512, 128]
0.008694612 -0.054788414 0.10980019 -0.02794149 0.010942877 0.12982291 -0.012710079 -0.08125478
0.070320666 0.076093316 -0.07051456 -0.05286488 0.020694843 0.013461028 -0.018513422 0.07926003
-0.071322426 0.04192265 -0.05865849 -0.08241372 0.016137343 -0.050773647 -0.1281678 -0.0114773065
-0.064041 0.017342245 -0.11954308 -0.102055274 0.105276264 0.027591176 0.048144564 -0.0048625562
0.017032066 0.07483176 -0.055503942 -0.08504092 -0.086029425 -0.055699445 -0.076712415 0.0070453123
0.20144624 0.093710646 -0.09088399 -0.12380096 0.13721938 0.06639788 0.03644225 -0.0799747
-0.015230025 0.0986663 0.078672804 0.028721306 0.023968743 0.08725585 -0.04000533 0.1820808
0.13282213 0.09982311 -0.0074527212 -0.06513453 0.1353216 0.09492562 0.09114977 -0.009477435
0.06446758 0.011144661 -0.0904125 0.057462085 0.06529194 -0.036882523 -0.016274659 0.012573797
0.064235814 0.093356736 -0.06507095 -0.09534325 0.098964185 -0.003601383 -0.023678496 -0.11472183
0.08607069 -0.03421979 0.151724 0.0386593 0.05157501 -0.030990815 0.0142188715 0.12412556
0.09233587 -0.054707166 -0.08352647 0.07150379 -0.05383531 -0.0111054145 0.051800963 0.05696523
-0.11789292 0.083935894 0.0013782049 -0.10312019 -0.0085831145 -0.036275443 0.026602942 0.07861648
0.06789627 -0.0053171143 0.062475912 0.022463212 -0.09579194 -0.15748253 -0.14331439 0.042745072
0.101734295 0.07323063 0.09795173 -0.07225087 -0.0060819853 -0.028786205 0.05171901 -0.007937546
0.08634679 0.03624754 0.051580265 -0.023239382 0.0021234376 -0.024674037 -0.04952819 -0.02438352
0.027773498 0.0066853166 -0.1704001 -0.06856762 -0.08912156 -0.043912217 -0.05488857 0.04557145
-0.10592553 -0.035863094 0.10922027 0.11144837 -0.05426075 -0.017509205 -0.057682082 0.0015801137
-0.030014135 -0.013828988 0.050035764 -0.10904628 0.008660764 -0.11097109 0.019967167 -0.08856293
-0.09831698 0.030990152 0.115565725 -0.01075475 -0.027515328 -0.03736589 -0.16797216 -0.024908092
0.04222685 -0.024606094 0.009940493 -0.06808024 0.14533271 0.13635427 0.119634904 0.02269383
-0.15470833 0.026174443 -0.03214757 0.00339257 -0.11441663 0.01387781 0.011208688 -0.057076033
0.015749618 0.14455599 0.009817301 -0.03789758 -0.08361916 -0.11537065 -0.14812636 0.0035460822
-0.007677207 -0.0065796035 0.08549529 0.061083972 0.054335363 -0.044019494 -0.022920016 0.04607906
-0.10345037 -0.08590064 0.071540385 0.043112274 0.1274155 -0.059903778 -0.14708605 -0.018826488
-0.054061778 0.042480923 -0.019183654 -0.0418418 -0.1248537 0.121947594 -0.039267827 -0.03176785
-0.06201089 0.021090776 -0.07368721 0.019502547 -0.054815352 0.042207915 -0.042627852 -0.17652012
0.07433134 -0.04428873 0.029954176 -0.13579465 0.11880775 0.0631933 -0.031132318 -0.0045585115
-0.022145795 -0.04887561 -0.003009889 -0.10016871 -0.040994387 0.118152514 -0.07336986 -0.046761785
0.08007633 -0.059135996 -0.020151908 -0.010261264 0.069723845 0.027411306 -0.012998856 0.063745625
-0.040318687 -0.1074418 -0.029701041 0.037925765 -0.112833954 0.13424388 -0.11418937 -0.031454492
-0.029253436 -0.11693305 -0.016487066 -0.020667762 -0.049329635 0.10131557 0.073425844 0.045661848
00000000: d973 0e3c d169 60bd ecde e03d 8de5 e4bc
00000010: c149 333c 4cf0 043e ef3d 50bc e868 a6bd
00000020: 4804 903d d0d6 9b3d f069 90bd d888 58bd
00000030: 3b88 a93c a58b 5c3c 76a9 97bc 1553 a23d
00000040: 7e11 92bd 16b7 2b3d e343 70bd 86c8 a8bd
00000050: 7632 843c 07f8 4fbd 6b3e 03be 500b 3cbc
00000060: ee27 83bd 5311 8e3c 01d3 f4bd 5b02 d1bd
00000070: 159b d73d e406 e23c 3c33 453d 1456 9fbb
00000080: d586 8b3c 6541 993d 1a58 63bd ef29 aebd
00000090: 3230 b0bd 1a25 64bd 661b 9dbd 5ddc e63b
000000a0: ec47 4e3e 5eeb bf3d 6321 babd 5c8b fdbd
000000b0: 3d83 0c3e 9dfb 873d 7844 153d c7c9 a3bd
000000c0: 5b87 79bc 8f11 ca3d 351f a13d f248 eb3c
000000d0: 195a c43c 32b3 b23d a1dc 23bd 6473 3a3e
000000e0: 8602 083e 0f70 cc3d f535 f4bb 4165 85bd
000000f0: bf91 0a3e 5d68 c23d bbac ba3d 3e47 1bbc
00000100: 9407 843d 1998 363c 302a b9bd 5d5d 6b3d
00000110: c8b7 853d 2112 17bd 6f52 85bc 5402 4e3c
00000120: 118e 833d d131 bf3d eb43 85bd 5243 c3bd
00000130: bcad ca3d 2e05 6cbb 68f9 c1bc 47f3 eabd
00000140: d445 b03d 0d2a 0cbd 895d 1b3e 3759 1e3d
00000150: 5140 533d 73e0 fdbc 45f6 683c 8b35 fe3d
00000160: 971a bd3d 9f14 60bd ed0f abbd 9470 923d
00000170: 6a82 5cbd 7cf3 35bc 3f2d 543d 5f54 693d
00000180: d871 f1bd 95e6 ab3d e2a4 b43a ae30 d3bd
00000190: 31a0 0cbc 8f95 14bd 6aee d93c ad01 a13d
000001a0: 330d 8b3d 303b aebb bee6 7f3d c504 b83c
000001b0: 912e c4bd 1a43 21be 02c1 12be 7515 2f3d
000001c0: 125a d03d f1f9 953d eb9a c83d 44f8 93bd
000001d0: 644b c7bb 0cd1 ebbc 50d7 533d 7b0c 02bc
000001e0: 96d6 b03d 4d78 143d d445 533d 8460 bebc
000001f0: 5f29 0b3b 3521 cabc 12de 4abd f3bf c7bc
00000200: 3f85 e33c 8010 db3b 5d7d 2ebe 2e6d 8cbd
00000210: 5d85 b6bd 4cdd 33bd d6d2 60bd 21a9 3a3d
00000220: 7cef d8bd 2ee5 12bd e0ae df3d 0b3f e43d
00000230: 8540 5ebd 776f 8fbc 0c44 6cbd d11b cf3a
00000240: 34e0 f5bc fb92 62bc 4df2 4c3d a853 dfbd
00000250: e1e5 0d3c d044 e3bd 2f92 a33c 7b60 b5bd
00000260: 6a5a c9bd 0fdf fd3c b9ad ec3d b134 30bc
00000270: d367 e1bc fa0c 19bd e500 2cbe 0e0c ccbc
00000280: 10f6 2c3d b892 c9bc 73dd 223c a76d 8bbd
00000290: 19d2 143e 74a0 0b3e 2503 f53d 69e8 b93c
000002a0: dc6b 1ebe c96b d63c 2cad 03bd e155 5e3b
000002b0: 4453 eabd c15f 633c a5a4 373c 8fc8 69bd
000002c0: 5805 813c 7c06 143e bfd8 203c 7e3a 1bbd
000002d0: 8640 abbd 7347 ecbd 70ae 17be 6365 683b
000002e0: 1491 fbbb b799 d7bb 2818 af3d 3033 7a3d
000002f0: c28e 5e3d c94d 34bd c2c2 bbbc 65bd 3c3d
00000300: cadd d3bd adec afbd c483 923d 7f96 303d
00000310: 3579 023e aa5d 75bd ba9d 16be 023a 9abc
00000320: e26f 5dbd 7a00 2e3d 0a27 9dbc 4f62 2bbd
00000330: 4cb3 ffbd a9bf f93d 4dd7 20bd 011f 02bd
00000340: 22ff 7dbd 90c6 ac3c 52e9 96bd cec3 9f3c
00000350: 1086 60bd 35e2 2c3d 8b9a 2ebd b1c1 34be
00000360: 083b 983d 1968 35bd 7662 f53c c10d 0bbe
00000370: 7a51 f33d 7d6b 813d 3409 ffbc 915f 95bb
00000380: 196b b5bc cb31 48bd 8f41 45bb 4125 cdbd
00000390: bbe9 27bd f2f9 f13d f042 96bd 4989 3fbd
000003a0: 0fff a33d 9638 72bd 9d15 a5bc dc1e 28bc
000003b0: 60cb 8e3d ad8d e03c 27f9 54bc 118d 823d
000003c0: 3525 25bd 720a dcbd 994f f3bc 0c58 1b3d
000003d0: 7d15 e7bd 3a77 093e 1edc e9bd 6dd6 00bd
000003e0: e7a4 efbc 987a efbd e20f 87bc 704f a9bc
000003f0: df0d 4abd 8a7e cf3d 4a60 963d eb07 3b3d

lstm.weight_hh_l1 f4 [512, 128]
0.025003025 -0.074490674 -0.13836928 0.0089465985 -0.03428768 -0.048032507 0.09515037 -0.07905334
0.011093217 -0.029251363 0.020169398 -0.053136438 0.1148593 -0.03634513 -0.058383614 0.023755409
-0.0451831 -0.04042274 -0.050727144 0.060868762 -0.05484623 -0.10665306 -0.0081064645 -0.14418888
0.073474996 -0.06344613 -0.027711324 -0.0006212653 0.041358296 -0.011721198 0.034497015 0.12494758
0.07078253 -0.07793439 -0.029548168 -0.019551184 -0.0067500365 0.002662315 -0.07290043 0.007760907
0.050836496 -0.14654079 -0.022113865 0.07539115 0.07245269 -0.07728926 0.090879045 0.008858599
0.11361138 -0.0044717137 0.12484085 0.008285007 -0.14415154 -0.0314382 -0.04278807 -0.06293851
-0.052302178 -0.06796921 -0.0003422437 -0.04642314 0.016431345 0.030999988 -0.02433572 -0.050331462
-0.04151549 0.012891048 -0.0027096313 0.024308123 -0.12168197 -0.022951854 0.022491703 0.027636973
-0.12478786 -0.06419249 -0.023537258 -0.02625392 0.12190424 0.0012008417 -0.027698854 -0.023529302
0.0082985 -0.054038316 -0.03720203 -0.047092557 0.061559796 0.03053948 -0.013543687 0.0055477205
-0.03609398 -0.038455967 -0.05136529 -0.044345394 0.014234668 0.04300859 -0.057718433 0.04296331
0.007773686 -0.029142205 0.028842231 -0.015519042 0.034015168 0.10873556 0.02984728 0.15810435
-0.062364146 -0.06452731 0.060638785 -0.116963066 -0.025882455 -0.019215412 0.06976014 0.08968658
0.0021991336 0.04318385 -0.11831306 0.016103892 0.092989095 -0.014922858 0.14197846 -0.018056456
0.04398645 -0.033052344 -0.09571275 0.009547234 -0.09652095 0.0969112 0.0026556023 -0.0660492
-0.07000968 -0.018580943 0.05117353 0.028507331 -0.013904972 0.018675793 -0.039530016 0.098276496
-0.071212985 0.07697157 0.060506385 0.019180126 -0.04288912 -0.0035073648 0.023598414 0.06405166
0.003682727 0.0708506 0.015294862 0.016119065 -0.09257539 0.06962015 0.053652942 0.012202931
0.059099182 0.04366447 -0.02753446 0.02549043 -0.04852753 0.038570024 -0.061083402 -0.029957803
0.0018908378 0.050403688 0.017672556 0.029367758 0.011653035 0.05374244 0.030443287 0.030550662
-0.03770326 0.054810178 -0.05074706 0.002484048 -0.007890658 0.009047279 -0.10491595 0.0388127
-0.10125154 0.03875559 -0.054885183 0.009424017 -0.030971754 -0.063805826 -0.009680108 0.0047046184
-0.10470479 0.00245756 0.048221584 -0.014968962 -0.01874238 0.01328737 -0.016578067 0.08872074
0.047015518 -0.0010269413 0.05501078 -0.019203112 -0.048751213 0.014737823 0.007527894 -0.05509857
-0.053875066 -0.017314645 -0.03563342 0.008154865 -0.043259148 0.014200112 -0.09500893 0.002683536
-0.055944726 0.0070025986 0.0066512865 -0.002893033 -0.017037125 -0.015666766 0.053909075 -0.06416577
-0.01000318 0.06718152 -0.020061154 -0.025059506 -0.041153356 -0.015533995 -0.073594 0.05999915
0.033760134 -0.045843046 0.004133682 0.019474933 0.06617501 -0.04136782 -0.007229874 -0.021916293
-0.03753444 -0.06630393 -0.054735024 0.03017884 0.081557095 0.03616925 -0.011004368 0.031932022
-0.10393017 -0.02392524 0.053417217 0.02198053 0.0027054902 -0.010218763 -0.04977317 -0.008510305
0.006621998 -0.045694184 0.019951688 0.035154585 0.029418727 -0.01620071 -0.039010353 0.013515488
00000000: 25d3 cc3c 918e 98bd adb0 0dbe c194 123c
00000010: 3d71 0cbd bcbd 44bd 32de c23d b8e6 a1bd
00000020: 53c0 353c 8ea0 efbc 4b3a a53c 98a5 59bd
00000030: 5a3b eb3d a2de 14bd a823 6fbd b49a c23c
00000040: ea11 39bd 5192 25bd 44c7 4fbd 8651 793d
00000050: 71a6 60bd eb6c dabd fad0 04bc 40a6 13be
00000060: 0f7a 963d 0bf0 81bd dc02 e3bc 69dc 22ba
00000070: 5167 293d 450a 40bc be4c 0d3d 84e4 ff3d
00000080: 6ef6 903d 119c 9fbd 000f f2bc ce29 a0bc
00000090: 692f ddbb 3c7a 2e3b d24c 95bd 354f fe3b
000000a0: ee39 503d ca0e 16be 2328 b5bc ad66 9a3d
000000b0: 1362 943d d549 9ebd cb1e ba3d a823 113c
000000c0: 15ad e83d 7487 92bb 8fac ff3d d7bd 073c
000000d0: 769c 13be 58c5 00bd 8b42 2fbd e8e5 80bd
000000e0: cf3a 56bd 7133 8bbd 2c6f b3b9 3126 3ebd
000000f0: 079b 863c b0f3 fd3c b45b c7bc 5d28 4ebd
00000100: 250c 2abd f934 533c 1294 31bb d421 c73c
00000110: 6634 f9bd 8705 bcbc 8540 b83c ef66 e23c
00000120: c790 ffbd 5a77 83bd 35d1 c0bc 7612 d7bc
00000130: eea8 f93d 9065 9d3a b5e8 e2bc 86c0 c0bc
00000140: 6ff6 073c 4857 5dbd 2861 18bd 20e4 40bd
00000150: 2026 7c3d ee2d fa3c 57e6 5dbc a7c9 b53b
00000160: 48d7 13bd 0184 1dbd 6964 52bd 84a3 35bd
00000170: 8638 693c c629 303d 2a6a 6cbd 4cfa 2f3d
00000180: 68ba fe3b a2bb eebc 8b46 ec3c 9443 7ebc
00000190: 7d53 0b3d c0b0 de3d 4882 f43c 1be6 213e
000001a0: 8c71 7fbd e526 84bd 6060 783d 558a efbd
000001b0: 7107 d4bc a469 9dbc 67de 8e3d 99ad b73d
000001c0: 571f 103b 8ce1 303d 1e4e f2bd 4fec 833c
000001d0: 1171 be3d 017f 74bc cd62 113e 22eb 93bc
000001e0: 232b 343d e561 07bd 0c05 c4bd 006c 1c3c
000001f0: c7ac c5bd 6179 c63d 9d09 2e3b ce44 87bd
00000200: 3c61 8fbd 1037 98bc 569b 513d 3588 e93c
00000210: aed1 63bc fafd 983c 3aea 21bd 3045 c93d
00000220: 1dd8 91bd 45a3 9d3d 8bd5 773d a41f 9d3c
00000230: 80ac 2fbd d1db 65bb 7651 c13c 842d 833d
00000240: e859 713b 1f1a 913d 4d97 7a3c 210c 843c
00000250: 2b98 bdbd 0295 8e3d 30c3 5b3d cdee 473c
00000260: fc11 723d 84d9 323d f38f e1bc 4ed1 d03c
00000270: cec4 46bd 9afb 1d3d 9732 7abd 116a f5bc
00000280: fdd5 f73a 1974 4e3d 09c6 903c a794 f03c
00000290: 5fec 3e3c 0821 5c3d 3364 f93c 6245 fa3c
000002a0: bc6e 1abd a380 603d 26dc 4fbd 69cb 223b
000002b0: d247 01bc 0a3b 143c 2cde d6bd 11fa 1e3d
000002c0: f85c cfbd 2ebe 1e3d 49cf 60bd 3167 1a3c
000002d0: 7ab8 fdbc a1ac 82bd 5199 1ebc 3329 9a3b
000002e0: 776f d6bd 040f 213b ff83 453d 6140 75bc
000002f0: 9f89 99bc 45b3 593c bace 87bc 38b3 b53d
00000300: 5893 403d 6f9a 86ba fc52 613d d84f 9dbc
00000310: 5aaf 47bd e976 713c 8dac f63b 0aaf 61bd
00000320: 1aac 5cbd 71d7 8dbc 59f4 11bd fc9b 053c
00000330: 8130 31bd 96a7 683c 0b94 c2bd 43de 2f3b
00000340: 4c26 65bd 0e76 e53b 09f3 d93b 0a99 3dbb
00000350: 7191 8bbc 9757 80bc c3cf 5c3d 5869 83bd
00000360: 61e4 23bc 7796 893d 4a57 a4bc 9849 cdbc
00000370: 6c90 28bd 4c82 7ebc 73b8 96bd abc1 753d
00000380: 1148 0a3d ebc5 3bbd d773 873b e589 9f3c
00000390: c386 873d 4e71 29bd 94e8 ecbb cc89 b3bc
000003a0: b7bd 19bd 5bca 87bd d531 60bd 9d39 f73c
000003b0: 6807 a73d 3526 143d aa4b 34bc 27cb 023d
000003c0: 57d9 d4bd ddfe c3bc 03cc 5a3d 8310 b43c
000003d0: 984e 313b 996c 27bc f4de 4bbd ce6e 0bbc
000003e0: 58fd d83b d329 3bbd b971 a33c 41fe 0f3d
000003f0: 8bff f03c 5ab7 84bc 52c9 1fbd 1170 5d3c

lstm.bias_ih_l1 f4 [512]
-0.042961814 -0.030688489 -0.035109773 0.0061696083 0.067537084 0.035494722 0.050981175 0.02242161
0.040518556 0.036754146 0.029773472 0.03824072 0.09113984 0.116830364 0.094675675 0.047149178
0.006561379 0.0032307366 0.05492464 -0.0013424705 0.09445979 0.048706625 0.019421577 0.044735517
-0.0131381 0.04377956 0.056212604 0.033524152 -0.019588234 0.0060823043 0.009673487 0.07807361
-0.056211647 0.19151945 0.013502889 -0.0016573431 -0.0023114113 0.04457012 0.054095842 0.060199413
0.046130724 0.0025225047 0.005453357 0.045026764 0.13262631 0.035511844 0.117539346 -0.03159382
0.012525205 -0.05408786 -0.006416363 0.059806053 0.12315282 0.063279584 0.0048496774 0.03333322
0.023563223 0.07124611 0.022347204 0.0616398 0.08215718 0.030264406 -0.0031603181 0.026652604
0.026330892 0.012474437 0.07772196 0.099769555 0.009807442 -0.019302418 0.057185646 0.03667173
0.06558321 -0.034195952 0.03472574 0.055839952 0.0026850805 0.034008194 -0.04112044 -0.017004931
0.004709412 0.05874044 0.0065938234 -0.044990495 0.10119731 -0.060955234 0.00041559731 0.022366533
0.069072045 -0.00095146406 0.03105344 0.02161655 0.02586263 0.03337093 -0.037529666 0.042003557
-0.0021779926 0.07870353 0.024301942 0.057985887 -0.018288212 -0.009245028 -0.025763415 -0.03493718
0.061627876 0.008479451 0.00297429 -0.0015162289 0.13444677 0.049678095 0.0046479884 -0.0042786705
0.0037994606 0.04275095 -0.003128195 0.030951405 0.02651567 -0.010286133 -0.010282353 0.058791082
0.043750368 -0.0006933619 0.10310495 -0.008732022 0.02023147 -0.03164638 -0.032859925 0.047267992
-0.010990691 -0.0023725631 -0.048721544 0.013443657 0.03801112 0.025632786 0.010911265 0.01922312
0.022627868 0.041039918 0.01977837 0.043176357 0.06277859 0.08537812 0.07257544 0.05615583
0.01721586 0.013288642 0.031630754 0.009067886 0.0357764 0.025178574 0.022397289 0.007410007
0.011746395 0.020903822 0.0043762466 0.027745273 0.0012713573 0.015671559 0.010851551 0.0690096
-0.006145755 0.08660347 0.03931122 0.0064909165 0.06417708 0.02523046 0.03267563 0.016735267
0.013119478 0.014534457 0.015710175 0.03866224 0.07834333 0.024290657 0.07181564 0.023524405
0.03749155 -0.03705197 0.030131247 0.045580506 0.08006554 0.011626751 0.046222042 0.020984707
0.043466885 0.037318293 0.023521168 0.05819231 0.07277181 0.041303135 0.021484023 0.01945928
0.02214826 0.06316656 0.027169406 0.06694988 0.0068447758 -0.02505939 0.04295982 0.0017596863
0.03091131 -0.0032332814 0.043085903 0.07131318 0.0047783 0.014992575 -0.005750984 -0.0019432182
-0.00065197615 0.036666747 0.024825426 -0.0021890611 0.07405258 -0.043916654 0.024172997 0.020308957
0.038052663 0.020619003 -0.018369745 0.028045392 0.018208776 0.047752824 0.019089887 0.036668442
0.019379767 0.08370417 0.014749777 0.017210322 0.015669623 0.01521391 0.0053061033 0.0071530165
0.086037576 -0.001125937 0.012473309 0.012478223 0.051195595 0.024354938 -0.00090954965 0.0031584639
0.009428526 0.034814358 0.041495025 0.024604015 -0.002097953 0.004193219 -0.0044629346 0.03902984
0.0033736203 0.012925848 0.0641138 0.027530096 0.010890154 0.02448218 0.013116996 0.025586998
00000000: baf8 2fbd 6d66 fbbc 44cf 0fbd 6d2a ca3b
00000010: e250 8a3d ea62 113d a3d1 503d 86ad b73c
00000020: c9f6 253d 848b 163d 7fe7 f33c 4da2 1c3d
00000030: 86a7 ba3d c244 ef3d 52e5 c13d 7f1f 413d
00000040: d600 d73b c4ba 533b a9f8 603d d6f5 afba
00000050: 2274 c13d 9980 473d 001a 9f3c 973c 373d
00000060: 2f41 57bc 3252 333d 303f 663d 9f50 093d
00000070: 8177 a0bc 114e c73b 8c7d 1e3c 0fe5 9f3d
00000080: 2f3e 66bd ad1d 443e 393b 5d3c 353b d9ba
00000090: 0c7b 17bb 288f 363d 9a93 5d3d a993 763d
000000a0: 92f3 3c3d 9b50 253b 13b2 b23b fc6d 383d
000000b0: 31cf 073e de74 113d 78b8 f03d 8568 01bd
000000c0: 8436 4d3c 3b8b 5dbd 5b40 d2bb 31f7 743d
000000d0: 8c37 fc3d ba98 813d 0bea 9e3b 6a88 083d
000000e0: a907 c13c 7be9 913d 7c11 b73c 047a 7c3d
000000f0: 0642 a83d 0fed f73c 571d 4fbb 9056 da3c
00000100: e2b3 d73c 9561 4c3c b12c 9f3d fb53 cc3d
00000110: 65af 203c 1b20 9ebc 7f3b 6a3d 1935 163d
00000120: 7d50 863d 0e11 0cbd 943c 0e3d 6fb8 643d
00000130: 2df8 2f3b 2d4c 0b3d e86d 28bd ed4d 8bbc
00000140: 6951 9a3b d199 703d 0011 d83b f447 38bd
00000150: 8940 cf3d 32ac 79bd 87e4 d939 053a b73c
00000160: a575 8d3d ac6b 79ba c963 fe3c 3115 b13c
00000170: dedd d33c f5af 083d b5b8 19bd ec0b 2c3d
00000180: a7bc 0ebb 512f a13d de14 c73c 9c82 6d3d
00000190: 29d1 95bc 7578 17bc cc0d d3bc 4a1a 0fbd
000001a0: 836d 7c3d 65ed 0a3c 4eec 423b 33bc c6ba
000001b0: 6aac 093e 427b 4b3d 274e 983b 1734 8cbb
000001c0: 5f00 793b 9f1b 2f3d 6702 4dbb cd8d fd3c
000001d0: 6437 d93c 2b87 28bc 5077 28bc ebce 703d
000001e0: 9633 333d bbc2 35ba b028 d33d c110 0fbc
000001f0: 78bc a53c a29f 01bd 2198 06bd 159c 413d
00000200: 4d12 34bc 017d 1bbb 3e90 47bd c942 5c3c
00000210: 8cb1 1b3d d9fb d13c 2ac5 323c ce79 9d3c
00000220: 145e b93c 7919 283d 4006 a23c b1d9 303d
00000230: 1092 803d b9da ae3d 6fa2 943d a803 663d
00000240: 4608 8d3c 9bb8 593c 408f 013d 7891 143c
00000250: 468a 123d 4c43 ce3c 857a b73c a5cf f23b
00000260: f473 403c 7e3e ab3c 9e66 8f3b 0e4a e33c
00000270: aca3 a63a a461 803c b4ca 313c e854 8d3d
00000280: 5462 c9bb 295d b13d cd04 213d c1b1 d43b
00000290: 466f 833d 1cb0 ce3c e2d6 053d 6618 893c
000002a0: 14f3 563c ee21 6e3c a0b2 803c 4c5c 1e3d
000002b0: 7872 a03d 33fd c63c 1414 933d 41b6 c03c
000002c0: bd90 193d cec3 17bd ced5 f63c a0b2 3a3d
000002d0: 67f9 a33d 217e 3e3c 5353 3d3d 1fe8 ab3c
000002e0: 550a 323d 11db 183d 77af c03c 0f5b 6e3d
000002f0: 6309 953d 7a2d 293d 43ff af3c 1169 9f3c
00000300: 4570 b53c 785d 813d 6092 de3c 051d 893d
00000310: 244a e03b 5a49 cdbc a3f6 2f3d 46a5 e63a
00000320: b739 fd3c 76e5 53bb d87a 303d a50c 923d
00000330: 4993 9c3b 6ba3 753c c072 bcbb 95b3 feba
00000340: 61e9 2aba df2f 163d b15e cb3c 5a76 0fbb
00000350: e1a8 973d f3e1 33bd 7306 c63c f85e a63c
00000360: 1cdd 1b3d 2fe9 a83c 267c 96bc 73bf e53c
00000370: 922a 953c 7798 433d 6562 9c3c a631 163d
00000380: 51c2 9e3c 186d ab3d 0ca9 713c a9fc 8c3c
00000390: 955d 803c c343 793c d2de ad3b da63 ea3b
000003a0: 7834 b03d 2d94 93ba da5c 4c3c 7671 4c3c
000003b0: 79b2 513d 0284 c73c d86e 6eba 3bfe 4e3b
000003c0: 1b7a 1a3c 8099 0e3d b0f6 293d 5c8e c93c
000003d0: d07d 09bb 4567 893b cf3d 92bb c1dd 1f3d
000003e0: f517 5d3b f0c6 533c 194e 833d cc86 e13c
000003f0: 9e6c 323c da8e c83c abe8 563c d39b d13c
